neuralcoref/train/weights/pair_mentions_bias_layer_1.npy (npy, 4080 bytes, 1 tensors)

array f8 [500, 1]
00000000: 9c96 0e8c 721f 973f bf6c f1df 72ab aa3f
00000010: 3524 eeb1 f4a1 bfbf 2101 a3cb 9bc3 953f
00000020: 44f3 9bea 12d3 4a3f 940e 7b46 c77a abbf
00000030: 8142 3d7d 04fe b8bf b961 ca76 7412 a03f
00000040: 5d56 bcec 3257 993f 3cf2 ac49 5c6c 8f3f
00000050: 0d39 1158 946d 8b3f 55c2 137a fd49 8c3f
00000060: d0af 52e6 8b62 6e3f c6ae a360 7c87 713f
00000070: 3b1a 87fa 5dd8 a23f 77bb 5e9a 22c0 b9bf
00000080: 200d 44a2 12cf 803f b92a 9a18 dc20 943f
00000090: 02f1 ba7e c16e b6bf 6876 dd5b 9198 98bf
000000a0: 3800 d182 0651 8d3f 3bb3 1314 f538 b8bf
000000b0: ed83 2c0b 26fe 883f 7f7b e8cc 87b1 863f
000000c0: da8e a9bb b20b 863f 1374 c5d6 7d11 8ebf
000000d0: 5d8e b2d9 eca3 7e3f c480 1de6 68e1 64bf
000000e0: 25e3 5ae5 f0e6 6cbf dc2e 34d7 69a4 853f
000000f0: f11d a97c d7b9 7cbf d4a5 98e6 ca5e 6e3f
00000100: b75e d383 8252 a43f 034a 3b1c fa7a 80bf
00000110: 528b 7736 9a12 97bf 1d24 9fb2 f567 b4bf
00000120: e06b 6347 3e0a 723f 5ad7 93b9 2c38 39bf
00000130: 529b 38b9 dfa1 a8bf 3db7 d095 0854 a33f
00000140: 3d75 f6df 9403 a33f 2f5c 0cd4 1863 963f
00000150: dd78 1cab 39e5 96bf 479c 0425 bb88 9d3f
00000160: 6d31 e47d c113 97bf 5110 e104 4b1a 883f
00000170: 71b4 db15 9736 6ebf 0983 d7d3 b3c5 8a3f
00000180: 35d4 2824 99d5 933f 1218 46d5 0a2e 993f
00000190: 37ca 97a3 090c 703f 9f6a 5f06 8452 83bf
000001a0: 5eec 623f 30ec 953f fd9c 2743 fa92 923f
000001b0: 3911 5894 6d3b 983f 7594 83d9 0418 bebf
000001c0: 0e9d bf85 4c64 7c3f 2a98 0886 3962 81bf
000001d0: b16a 10e6 762f 9fbf 1d33 f55f 8ced 8a3f
000001e0: 5b07 8bb3 b7ce 5e3f 8070 f4e7 91f5 923f
000001f0: 111d 0247 020d 963f 0f6a 1a6f 8676 913f
00000200: fefc ad53 9bee 8bbf ee23 b726 dd96 a03f
00000210: f244 10e7 e104 863f cdfb a47f ee70 a03f
00000220: 0d8f 79f4 f196 7c3f 0b08 10b2 ea7b 76bf
00000230: 47b0 ccb6 2e90 8bbf ad54 ab0a 687d 853f
00000240: acac 6d8a c745 953f af87 e585 2aeb 8d3f
00000250: 3ca3 ad4a 22fb 90bf c190 d5ad 9e93 9ebf
00000260: 0364 4392 b476 963f e0c9 5d3a 9caf a43f
00000270: 2986 37ad 0c91 703f d33e 671c 3405 943f
00000280: 64be 9df3 3c80 31bf 16ce 7f59 ebd5 993f
00000290: e0a8 705f 6287 b8bf af17 5465 29a3 9b3f
000002a0: 29dc e165 3c00 803f 52ab 3b58 f776 80bf
000002b0: 90ae 8850 5bd9 acbf 3f57 5bb1 bfec 963f
000002c0: aab7 06b6 4ab0 903f 253a 7073 cf5f 95bf
000002d0: f808 ebb5 8fcb a23f 6754 cf38 c3c3 8a3f
000002e0: eb97 5f38 9d85 69bf 874c 9e57 e13b a23f
000002f0: c30d f8fc 3042 903f d2b4 7a3d 4e87 a43f
00000300: 6de9 2c0e c237 903f 4eb8 57e6 adba babf
00000310: 43f4 18a3 7dc5 6d3f b151 d66f 26a6 bfbf
00000320: e0d7 06f6 b1e5 813f 817a 336a be4a 8ebf
00000330: cf80 1f7a f76c 9a3f 08c5 3d33 14b9 803f
00000340: acdb 453d e9e9 883f aabb 2ed3 614b 803f
00000350: 5a2a 6f47 382d 903f 33b7 8ce5 a782 933f
00000360: 5619 5b42 1dda 60bf d71d a40a f3dc 7a3f
00000370: 8ddb c3b9 e1d2 8cbf 3d4c 56a0 713c 9a3f
00000380: aa03 0751 4a4a 823f 6ccb 25fa 21db 9ebf
00000390: 95f3 c5de 8b2f 923f 8cb8 a57a d745 963f
000003a0: 2de7 f7a2 e2a4 a13f 2e68 6b8e bd28 9b3f
000003b0: 2820 f5f0 c8cc 83bf dfac da98 4b68 6abf
000003c0: de31 8683 ceb5 893f c0a9 b46a 7ccb 99bf
000003d0: 1a67 7858 4d7c 923f 8511 56be c2dd 843f
000003e0: e7ac 2e2b 3d68 60bf ef0c 09ce cfc3 973f
000003f0: 4324 9e47 20b9 903f 0410 2d68 10d5 a6bf
00000400: a37c 9cc4 7b69 85bf e29d 32ed 516e b3bf
00000410: 2327 b8fd 9710 883f 121c f22a c654 953f
00000420: 96fb 2444 e79f 4a3f d905 07a4 9274 7cbf
00000430: 82d3 71eb 2411 903f 1fe8 b2e2 6597 993f
00000440: d97e ae8d e34d 6fbf f076 73a7 2a23 943f
00000450: 02f3 9029 1f82 92bf cbec 985f 7248 973f
00000460: 2cbc cb45 7c27 c0bf 3626 1f16 c506 76bf
00000470: 89c2 7817 3955 80bf f380 689c 3c1b 90bf
00000480: b554 de8e 705a 98bf 13d3 8558 fd11 963f
00000490: 33c5 77bd 8ffe b8bf d9ad 0a79 a97d 973f
000004a0: 9679 abae 4335 953f c9c7 301f f74a 84bf
000004b0: 280b 5f5f eb52 b7bf f16b 3da6 6221 72bf
000004c0: 9b9d fb61 3a63 aabf 8746 5e73 9a47 663f
000004d0: c217 2653 05a3 9a3f fd3e 2d50 9ced 8bbf
000004e0: 29c2 97d3 afbe 7b3f f57c 72b9 6697 9cbf
000004f0: cc65 1f3b dafe 66bf 8b83 322a fc5b 6abf
00000500: 46d3 d9c9 e028 913f e643 abee ec86 903f
00000510: e6be 8bad 56dc 7e3f ff28 4586 b075 a4bf
00000520: 1956 f146 e691 973f 8fde 701f b935 bdbf
00000530: f090 18f3 29b6 683f 6924 9ddc 4a0a a73f
00000540: 6489 18c0 a5ad 8b3f 5268 d5be ebf9 6bbf
00000550: 9bb0 581e ff60 6bbf 71fe cb5a af8e 88bf
00000560: 3e11 7aec 1d24 9a3f e2db 0594 9746 8d3f
00000570: fc3b 1096 07a2 44bf 4f59 4dd7 135d 873f
00000580: 635f 91e3 7768 52bf 4d74 0ab0 97bf 75bf
00000590: 8f63 35a7 dc8e 8a3f 9947 fe60 e0b9 a73f
000005a0: 2323 6fd2 9752 753f 2250 fd83 4886 7cbf
000005b0: b050 10e1 044b a63f 0488 0652 f73b 63bf
000005c0: 5cb7 f75f 9d19 933f 8d5d 47c1 f80e a33f
000005d0: df02 6443 92b4 86bf e0e0 664c 1cd4 893f
000005e0: 4ddc 2a88 81ae 95bf 54d7 eb27 ad09 a33f
000005f0: 3114 2474 9f35 823f 0da8 37a3 e6ab 94bf
00000600: 590d d308 47da 97bf cf68 ab92 c83e acbf
00000610: c0de 0e1e b7a9 933f 805b c180 6fe4 7b3f
00000620: 7ec5 1a2e 724f bbbf 0f42 40be 840a 8e3f
00000630: adff ce51 a280 90bf 8b2e 1455 6419 973f
00000640: 6ece 77a6 86ec 923f 9346 167a 0e76 443f
00000650: e7e6 768a b03c 9bbf 6f36 ebc6 9a15 823f
00000660: 5f47 776b f4c5 993f 18d7 5306 6921 6c3f
00000670: 7edd 2beb e514 60bf d7d7 5f1b 96ab b2bf
00000680: 4d1b 6904 7690 9abf a568 e55e 6056 903f
00000690: 9a3c 0a7c eafd 933f 4a32 61ea 9dc0 7abf
000006a0: cf35 278a eb73 a4bf 22c6 6b5e d559 bdbf
000006b0: bcdc 71d4 1bff 9f3f 11d1 9e81 470a 83bf
000006c0: 0732 f1fd c34c 91bf c981 0d3e 833c 81bf
000006d0: 41fd 1d40 7562 95bf b4a8 d3aa 2bd9 803f
000006e0: 5506 a3cc e58a 7b3f 47f3 535e 2330 833f
000006f0: cf29 4c08 eb39 803f c2e5 0c20 d7e1 933f
00000700: edc5 06c1 994e 913f 01e4 dfc2 15ab 913f
00000710: 8370 60cd 5c3b b6bf a220 1dc3 0886 903f
00000720: 01a3 cb9b c3b5 9a3f 51eb 47d4 55cb 873f
00000730: 3e0a 325d e38e 923f 7461 a417 b5fb 953f
00000740: 2c54 ed89 647e 943f 846b 49a2 f20a 973f
00000750: 8830 7e1a f7e6 cbbf 10fd 2488 049d 92bf
00000760: a95a c125 b671 a2bf 24bb 2dec c440 9a3f
00000770: a51e 5844 0367 7f3f f04f a912 656f 913f
00000780: f1e5 4f65 6204 9e3f 4528 19ad 618e 673f
00000790: 1636 5e15 037f abbf 4912 842b a050 8f3f
000007a0: 8579 b041 36fb 81bf 3bc3 d496 3ac8 8b3f
000007b0: 1246 bb23 c6df 743f 8dcf 0946 cabb 8f3f
000007c0: ff2b 8606 bd92 8f3f b2c6 8fe7 e912 94bf
000007d0: 3d76 61b5 430d a43f 4f04 711e 4e60 bebf
000007e0: 2205 aada c93b 923f 9528 de75 f4c7 7d3f
000007f0: 2c88 dc67 f052 953f fe92 9e33 b3e0 a33f
0.0225809 0.0520893 -0.123565 0.021254 0.000818619 -0.0536711 -0.097626 0.0313908
0.0247467 0.0153434 0.0133926 0.013813 0.0037091 0.0042796 0.036807 -0.100588
0.00820746 0.0196566 -0.0876275 -0.0240195 0.0143147 -0.0946191 0.0122035 0.0110808
0.0107645 -0.0146818 0.00748055 -0.00254889 -0.00352809 0.0105675 -0.00701317 0.00370731
0.039692 -0.00804706 -0.0225319 -0.0797113 0.0044043 -0.000384818 -0.04811 0.0377505
0.0371367 0.0218624 -0.0223588 0.0288419 -0.0225363 0.0117689 -0.00368814 0.0130724
0.0193695 0.0245897 0.00391773 -0.00943473 0.0214088 0.0181388 0.0236642 -0.117554
0.00693159 -0.00848813 -0.0304545 0.0131484 0.00188034 0.0185149 0.021534 0.0170537
-0.0136387 0.032401 0.0107515 0.0321116 0.00697989 -0.00548927 -0.0134586 0.0104931
0.020774 0.0146087 -0.016583 -0.02986 0.0219372 0.0404023 0.00404458 0.0195511
-0.000267043 0.0252301 -0.0958158 0.0269896 0.00781295 -0.00803941 -0.0563458 0.0223875
0.0162975 -0.0208733 0.0367093 0.0130687 -0.00311547 0.0356131 0.0158775 0.0400948
0.0158377 -0.104411 0.00363421 -0.123629 0.00873889 -0.014791 0.0258063 0.00816551
0.0121649 0.00795628 0.0157975 0.0190531 -0.00205713 0.00655837 -0.0140741 0.0256212
0.00893076 -0.0301328 0.0177595 0.0217508 0.0344611 0.0265226 -0.00966794 -0.00322356
0.0125538 -0.0251903 0.0180523 0.0101886 -0.00200283 0.0232079 0.0163312 -0.0445943
-0.0104551 -0.0759021 0.0117504 0.0208312 0.000812519 -0.00694711 0.0156904 0.0249916
-0.00382132 0.0196654 -0.0180745 0.0227373 -0.126205 -0.00537755 -0.00797505 -0.0157289
-0.0237825 0.021553 -0.0976343 0.0229403 0.020711 -0.00990861 -0.091109 -0.00442637
-0.0515383 0.00271969 0.0260125 -0.0136368 0.00677365 -0.0279213 -0.00280707 -0.00321769
0.0167575 0.0161397 0.00753435 -0.0399604 0.0230175 -0.114101 0.00301655 0.0450004
0.0135148 -0.00341507 -0.00334215 -0.0119909 0.0255284 0.0142948 -0.000629667 0.011408
-0.00112354 -0.00530967 0.0129678 0.04634 0.00520572 -0.006964 0.0435411 -0.00234793
0.0186524 0.0372236 -0.0110866 0.0126116 -0.0211735 0.0371832 0.00889134 -0.020187
-0.0232936 -0.0551665 0.0192021 0.00680965 -0.106681 0.0146685 -0.0161157 0.0225578
0.0184804 0.000624425 -0.0265987 0.00883027 0.0251692 0.0034339 -0.00196309 -0.0729307
-0.0259417 0.0159545 0.0195233 -0.00653135 -0.0399469 -0.114652 0.0312466 -0.00929695
-0.0168944 -0.0084162 -0.0208834 0.00822672 0.00672426 0.00936916 0.00792297 0.0194162
0.0169014 0.0172542 -0.0868433 0.0161363 0.026084 0.0116183 0.0181232 0.021468
0.0200134 0.0225027 -0.217986 -0.0181771 -0.0360238 0.0256377 0.0076666 0.0170265
0.0293136 0.00287551 -0.0537034 0.0152905 -0.00877993 0.0135655 0.00509622 0.0154949
0.0154166 -0.0196034 0.0391637 -0.118657 0.0178062 0.00727077 0.0208242 0.0388237
