neuralcoref/train/weights/pair_mentions_bias_layer_0.npy (npy, 8080 bytes, 1 tensors)

array f8 [1000, 1]
-0.22409 -0.0528184 0.543424 0.662614 -0.755077 0.16574 0.538174 0.289107
0.491328 -0.271786 0.147515 -0.14569 0.0825165 0.739965 0.241134 0.908215
-0.148082 -1.40947 -0.113588 -0.836341 -0.768817 0.112772 -0.112405 -0.274724
-0.463513 0.84629 -0.201075 0.175604 0.449324 0.053627 0.584506 -1.61514
0.158005 -0.0756785 -1.68022 -0.309331 -0.144434 -1.34455 0.389644 -0.0203891
0.55477 -0.349765 0.414403 -0.358717 0.123346 -0.232454 -0.0251659 0.519204
0.588487 0.116376 0.0395022 -3.84854 -0.0181574 0.161145 -0.993713 0.276779
0.171107 -0.85829 0.358682 -1.25281 -0.0233554 0.221758 0.132707 -1.28025
-0.319982 -0.282146 -1.37265 -1.37436 -0.483498 -0.169268 0.00690952 -2.00006
-0.41941 0.26857 0.174381 -1.39483 -2.45457 -1.34996 -0.0682052 -0.984745
0.360683 0.577883 -0.439213 0.249588 0.304187 0.196974 -0.0671946 0.076329
-0.412179 -0.167538 0.00457392 -0.0675258 -0.895159 -0.344344 -0.14958 -0.191775
-0.512714 -0.375874 -0.24387 -1.10143 -0.647846 0.106788 0.686826 -0.159289
-1.37426 0.786182 -1.30438 0.122502 -2.62497 0.00674962 -1.29897 -0.283782
0.280359 -0.283723 -0.151403 -0.245676 -0.03891 0.249013 -0.0484026 -0.0363663
-0.355507 -0.800215 -1.10281 -0.414986 0.318936 0.144403 1.22358 -0.870269
-1.42311 0.0174078 0.652443 -1.47905 -1.30727 0.390123 -0.464714 -1.05294
0.36931 0.794809 0.409903 0.197327 -0.0495483 -1.09298 -0.140394 -0.0612835
-0.633003 0.0868058 0.025213 -2.05264 -0.352634 0.854547 -0.318951 -0.494005
-0.334074 0.609628 0.243384 -1.08887 -0.166251 -1.32079 -0.13785 0.0782775
-0.0142672 -0.714855 -0.217215 -1.37067 -0.104099 -0.199704 0.0692154 0.58085
-0.447929 -0.864704 -0.942503 0.502945 -1.64828 -0.175156 0.424732 -0.178961
-0.708247 -0.242688 -0.111558 -0.193013 0.260144 0.315708 -1.52619 0.206796
1.03253 -0.171847 0.482488 0.42782 -1.38173 -0.0417377 -1.89298 -0.143543
-0.407737 -1.02767 -1.58696 0.552731 0.339087 -0.511089 0.0332295 0.0241763
0.0167779 -1.56889 0.13972 -1.74056 0.0193049 0.614562 -0.0793025 -0.251275
-0.450038 -0.739295 -0.486558 -1.51323 -0.107582 -2.3078 0.276692 -0.990632
-1.53362 -0.142029 0.560962 -0.683614 -2.25605 0.0176546 -0.149789 -2.0983
-0.940403 -1.56699 -0.107799 -0.883549 0.533477 -0.611583 -0.202769 -0.526753
0.0889795 -0.434307 -0.152971 0.62622 -1.461 -0.477776 -1.14076 0.0403062
0.0474741 -0.204327 0.328026 -0.000992082 0.0826431 0.449553 -0.399373 -0.355489
0.0268882 -0.286744 -1.40137 -0.598457 -0.888742 -1.0314 -0.101637 -0.0427598
00000000: 7429 ae2a fbae ccbf 3a0c 4169 030b abbf
00000010: 7191 7bba ba63 e13f 54e5 7b46 2234 e53f
00000020: 00c7 9e3d 9729 e8bf 10cc d1e3 f736 c53f
00000030: 13d7 31ae b838 e13f e8db 82a5 ba80 d23f
00000040: 4cfb e6fe ea71 df3f 97ae 601b f164 d1bf
00000050: 36b0 5582 c5e1 c23f bc57 ad4c f8a5 c2bf
00000060: d960 e124 cd1f b53f 92e8 6514 cbad e73f
00000070: a911 fa99 7add ce3f 8e92 57e7 1810 ed3f
00000080: ae29 90d9 59f4 c2bf 0517 2b6a 308d f6bf
00000090: fed1 3769 1a14 bdbf d8b9 6933 4ec3 eabf
000000a0: 8d7b f31b 269a e8bf 198e e733 a0de bc3f
000000b0: 4a29 e8f6 92c6 bcbf 9148 dbf8 1395 d1bf
000000c0: 9355 116e 32aa ddbf a2d1 1dc4 ce14 eb3f
000000d0: 9487 855a d3bc c9bf 05fd 851e 317a c63f
000000e0: b3b4 5373 b9c1 dc3f b37c 5d86 ff74 ab3f
000000f0: d61a 4aed 45b4 e23f 0f62 670a 9dd7 f9bf
00000100: 9a5f cd01 8239 c43f 61a5 828a aa5f b3bf
00000110: a75c e15d 2ee2 fabf fce4 2840 14cc d3bf
00000120: 7219 3735 d07c c2bf 8863 5ddc 4683 f5bf
00000130: b649 4563 edef d83f f28c c756 e1e0 94bf
00000140: 54a9 d903 adc0 e13f a644 12bd 8c62 d6bf
00000150: 7f50 1729 9485 da3f 193b e125 38f5 d6bf
00000160: 93a8 177c 9a93 bf3f 6a85 e97b 0dc1 cdbf
00000170: cbca e5f5 16c5 99bf ee79 feb4 519d e03f
00000180: 7ae0 63b0 e2d4 e23f 4d0f 0a4a d1ca bd3f
00000190: 5a77 3de2 a139 a43f 60c8 ea56 cfc9 0ec0
000001a0: 43b8 b87c da97 92bf 55fb 743c 66a0 c43f
000001b0: 8385 9334 7fcc efbf aa0d 4e44 bfb6 d13f
000001c0: 1cef 8e8c d5e6 c53f 9e7b 0f97 1c77 ebbf
000001d0: e17c ea58 a5f4 d63f cfa0 a17f 820b f4bf
000001e0: 3870 bd5c 7aea 97bf d42c d0ee 9062 cc3f
000001f0: 83a2 7900 8bfc c03f 9643 8b6c e77b f4bf
00000200: 48c1 53c8 957a d4bf 309f ac18 ae0e d2bf
00000210: 9fab add8 5ff6 f5bf 93e3 4ee9 60fd f5bf
00000220: 309c 6b98 a1f1 debf a931 21e6 92aa c5bf
00000230: fd9c e526 284d 7c3f 554d 1075 1f00 00c0
00000240: 0f62 670a 9dd7 dabf 38f3 ab39 4030 d13f
00000250: 749a 05da 1d52 c63f c5ac 1743 3951 f6bf
00000260: 17f1 9d98 f5a2 03c0 d387 2ea8 6f99 f5bf
00000270: a2c9 6a5f e575 b1bf dec8 3cf2 0783 efbf
00000280: 6248 4e26 6e15 d73f 8142 3d7d 047e e23f
00000290: 5798 bed7 101c dcbf 9bad bce4 7ff2 cf3f
000002a0: 1493 37c0 cc77 d33f 61c6 14ac 7136 c93f
000002b0: d8c1 7751 aa33 b1bf a983 bc1e 4c8a b33f
000002c0: 5f45 4607 2461 dabf f12a 6b9b e271 c5bf
000002d0: 7646 084d 1abc 723f 6ae0 a2ee 5e49 b1bf
000002e0: c40a b77c 24a5 ecbf 88b9 a46a bb09 d6bf
000002f0: f65d 11fc 6f25 c3bf 075f 984c 158c c8bf
00000300: 6971 c630 2768 e0bf 47ab 5ad2 510e d8bf
00000310: d7dd 3cd5 2137 cfbf 1d55 4d10 759f f1bf
00000320: 7505 db88 27bb e4bf 88f1 9a57 7556 bb3f
00000330: 215c 0185 7afa e53f d767 cefa 9463 c4bf
00000340: 2237 c30d f8fc f5bf 1f86 5627 6728 e93f
00000350: 58e7 1890 bdde f4bf c8d0 b183 4a5c bf3f
00000360: 55d9 7745 f0ff 04c0 721c 9152 7da5 7b3f
00000370: 0dc3 47c4 94c8 f4bf d861 4cfa 7b29 d2bf
00000380: b4e9 08e0 66f1 d13f 5ddf 8783 8428 d2bf
00000390: ba15 c26a 2c61 c3bf 90bf b4a8 4f72 cfbf
000003a0: 4087 f9f2 02ec a3bf 4bb1 a371 a8df cf3f
000003b0: 652e 15c0 39c8 a8bf 7561 5a8a 9a9e a2bf
000003c0: ccf0 9f6e a0c0 d6bf b398 d87c 5c9b e9bf
000003d0: 693a 3b19 1ca5 f1bf 1310 9370 218f dabf
000003e0: 7217 618a 7269 d43f 6ede 3829 cc7b c23f
000003f0: 87a2 409f c893 f33f bc1f b75f 3ed9 ebbf
00000400: dbc4 c9fd 0ec5 f6bf 08ff c7ae 59d3 913f
00000410: d121 7024 d0e0 e43f 7c61 3255 30aa f7bf
00000420: b4ab 90f2 93ea f4bf d0b6 9a75 c6f7 d83f
00000430: f392 ffc9 dfbd ddbf 6267 0a9d d7d8 f0bf
00000440: 187d 0569 c6a2 d73f 7920 b248 136f e93f
00000450: 0211 e2ca d93b da3f cf13 cfd9 0242 c93f
00000460: 3211 2510 655e a9bf cde9 b298 d87c f1bf
00000470: ebfd 463b 6ef8 c1bf f99e 9108 8d60 afbf
00000480: eca2 e881 8f41 e4bf dd65 1aa8 e738 b63f
00000490: 1477 bcc9 6fd1 993f 07b1 3385 ce6b 00c0
000004a0: 5e4a 5d32 8e91 d6bf 1ea3 3cf3 7258 eb3f
000004b0: 1cb2 8174 b169 d4bf e8de c325 c79d dfbf
000004c0: ec68 1cea 7761 d5bf 793a 5794 1282 e33f
000004d0: 2651 2ff8 3427 cf3f 4087 f9f2 026c f1bf
000004e0: a3b1 f677 b647 c5bf 3524 eeb1 f421 f5bf
000004f0: f775 e09c 11a5 c1bf 603c 8386 fe09 b43f
00000500: 2c72 3e2b 1f38 8dbf 003a cc97 17e0 e6bf
00000510: 92ae 997c b3cd cbbf aebb 79aa 43ee f5bf
00000520: 94da 8b68 3ba6 babf 6cb0 7092 e68f c9bf
00000530: bd2a 61b7 19b8 b13f 1136 3cbd 5296 e23f
00000540: dc84 7b65 deaa dcbf 630d 17b9 a7ab ebbf
00000550: 6d38 2c0d fc28 eebf 9cf9 d51c 2018 e03f
00000560: 016a 6ad9 5a5f fabf d55d d905 836b c6bf
00000570: 9623 6420 cf2e db3f db35 21ad 31e8 c6bf
00000580: ffae cf9c f5a9 e6bf d7d9 907f 6610 cfbf
00000590: 5d6f 9ba9 108f bcbf ecf6 5965 a6b4 c8bf
000005a0: 390a 1005 33a6 d03f f279 c553 8f34 d43f
000005b0: 41b7 9734 466b f8bf 69c8 7894 4a78 ca3f
000005c0: da38 622d 3e85 f03f 0d36 751e 15ff c5bf
000005d0: bf98 2d59 15e1 de3f 36c8 2423 6761 db3f
000005e0: eb6e 9eea 901b f6bf b240 05d1 a45e a5bf
000005f0: 9ab6 7f65 a549 febf d9ec 48f5 9d5f c2bf
00000600: 30a0 17ee 5c18 dabf fe48 1119 5671 f0bf
00000610: 6af6 402b 3064 f9bf 3388 0fec f8af e13f
00000620: 8eeb dff5 99b3 d53f 0f0d 8b51 d75a e0bf
00000630: 7d5d 86ff 7403 a13f 5567 5a07 acc1 983f
00000640: dca6 2ecf 392e 913f d157 9066 2c1a f9bf
00000650: 6e6e 4c4f 58e2 c13f b79c 4b71 55d9 fbbf
00000660: 2c36 9ce8 a9c4 933f c6a8 6bed 7daa e33f
00000670: ccb4 fd2b 2b4d b4bf 865a d3bc e314 d0bf
00000680: 8d43 fd2e 6ccd dcbf 0e15 e3fc 4da8 e7bf
00000690: d7db 662a c423 dfbf a037 15a9 3036 f8bf
000006a0: cb65 a373 7e8a bbbf 9fab add8 5f76 02c0
000006b0: 3526 c45c 52b5 d13f d2df 4be1 41b3 efbf
000006c0: 44dd 0720 b589 f8bf e1b2 0a9b 012e c2bf
000006d0: 608f 8994 66f3 e13f cdce a277 2ae0 e5bf
000006e0: 5c20 41f1 630c 02c0 caef 7e26 0c14 923f
000006f0: 3a78 2634 492c c3bf 0c93 a982 51c9 00c0
00000700: e1ed 4108 c817 eebf 6e8b 321b 6412 f9bf
00000710: 02a0 8a1b b798 bbbf 6d3b 6d8d 0846 ecbf
00000720: d461 855b 3e12 e13f 2444 f982 1692 e3bf
00000730: 8141 d2a7 55f4 c9bf 863c 821b 29db e0bf
00000740: d1b1 834a 5cc7 b63f b820 5b96 afcb dbbf
00000750: e142 1ec1 8d94 c3bf 603c 8386 fe09 e43f
00000760: c74b 3789 4160 f7bf 9813 b4c9 e193 debf
00000770: ff5b c98e 8d40 f2bf 16ee a6a5 03a3 a43f
00000780: b566 d075 864e a83f 1b4b 581b 6327 cabf
00000790: 6936 8fc3 60fe d43f e843 adef 1741 50bf
000007a0: 6a74 bd23 1928 b53f 6265 34f2 79c5 dc3f
000007b0: 34f2 79c5 538f d9bf 999d 45ef 54c0 d6bf
000007c0: d8dd 978e 9488 9b3f 16c0 9481 035a d2bf
000007d0: 4087 f9f2 026c f6bf 22fe 614b 8f26 e3bf
000007e0: bb9c 1210 9370 ecbf aa82 5149 9d80 f0bf
000007f0: f244 10e7 e104 babf 9ec0 2acd 9ce4 a5bf
