neuralcoref/train/weights/single_mention_weights_layer_3.npy (npy, 4080 bytes, 1 tensors)

array f8 [1, 500]
000000 4b 73 2b 84 d5 58 c0 bf 35 41 d4 7d 00 52 c5 3f
       -0.127711 0.166565
000010 27 50 c4 22 86 1d c6 bf fd b6 cc 8e f9 25 b5 3f
       -0.172776 0.0826107
000020 a3 40 9f c8 93 a4 c5 bf 11 01 87 50 a5 66 c5 bf
       -0.169085 -0.167195
000030 31 07 41 47 ab 5a be bf f6 b5 2e 35 42 3f c3 3f
       -0.118571 0.150368
000040 7c 0e 2c 47 c8 40 c6 bf 2c 7f be 2d 58 aa c5 bf
       -0.173852 -0.169261
000050 7a c6 be 64 e3 c1 c6 bf e6 3e 39 0a 10 05 c3 3f
       -0.177792 0.148592
000060 ae 29 90 d9 59 f4 c4 bf c8 d2 87 2e a8 6f c9 bf
       -0.163707 -0.19872
000070 91 ef 52 ea 92 71 c6 bf 05 33 a6 60 8d b3 c5 bf
       -0.175341 -0.169542
000080 0a 31 97 54 6d 37 c5 bf 12 30 ba bc 39 5c c3 bf
       -0.165754 -0.151252
000090 44 33 4f ae 29 90 c7 bf 86 af af 75 a9 11 c2 3f
       -0.184087 0.141164
0000a0 65 8f 50 33 a4 8a c2 3f 6f b9 fa b1 49 7e c4 3f
       0.144856 0.160104
0000b0 3d 7c 99 28 42 ea c6 bf a4 e2 ff 8e a8 50 c3 bf
       -0.179024 -0.150899
0000c0 af 96 3b 33 c1 70 c8 bf 58 e3 6c 3a 02 b8 c5 bf
       -0.190941 -0.169678
0000d0 65 71 ff 91 e9 d0 c5 bf ce 19 51 da 1b 7c c5 bf
       -0.170438 -0.16785
0000e0 58 ab 76 4d 48 6b c2 3f 55 84 9b 8c 2a c3 c2 bf
       0.143899 -0.146581
0000f0 72 4f 57 77 2c b6 c1 3f 9e b1 2f d9 78 b0 c5 bf
       0.138372 -0.169448
000100 6a f6 40 2b 30 64 c3 3f d0 99 b4 a9 ba 47 c8 bf
       0.151495 -0.189689
000110 38 bd 8b f7 e3 f6 bf 3f 44 51 a0 4f e4 49 c6 bf
       0.124861 -0.17413
000120 1d 39 d2 19 18 79 c5 bf 05 89 ed ee 01 ba c3 3f
       -0.167758 0.154114
000130 09 52 29 76 34 0e c3 bf 24 7d 5a 45 7f 68 c6 bf
       -0.148871 -0.175064
000140 8a 90 ba 9d 7d e5 c5 bf bd 18 ca 89 76 15 c6 bf
       -0.171066 -0.17253
000150 ec a2 e8 81 8f c1 c4 bf 13 65 6f 29 e7 8b c3 3f
       -0.162157 0.152707
000160 93 fd f3 34 60 90 c2 3f da 20 93 8c 9c 85 c3 3f
       0.145031 0.152515
000170 8d 5f 78 25 c9 73 c3 3f d9 7b f1 45 7b bc c4 bf
       0.151971 -0.162002
000180 66 2d 05 a4 fd 0f c6 3f cd 90 2a 8a 57 59 c5 bf
       0.172363 -0.166789
000190 9a 7c b3 cd 8d e9 c1 3f 8f 54 df f9 45 09 c4 3f
       0.13994 0.156533
0001a0 83 c3 0b 22 52 d3 c4 bf 35 b2 2b 2d 23 f5 c6 bf
       -0.162699 -0.179356
0001b0 19 57 5c 1c 95 9b c2 3f 9a 27 d7 14 c8 ec c2 3f
       0.145373 0.147851
0001c0 0f 46 ec 13 40 31 c4 3f 4f 78 09 4e 7d 20 c5 bf
       0.157753 -0.165054
0001d0 10 ad 15 6d 8e 73 c5 bf b9 ff c8 74 e8 f4 c4 bf
       -0.167589 -0.163724
0001e0 e0 a2 93 a5 d6 fb c3 3f de 02 09 8a 1f 63 c4 3f
       0.156123 0.159275
0001f0 8b 71 fe 26 14 22 c6 bf 9f 04 36 e7 e0 99 c4 3f
       -0.172915 0.160946
000200 35 ec f7 c4 3a 55 c4 bf 77 bd 34 45 80 d3 c1 3f
       -0.158851 0.139267
000210 ed 81 56 60 c8 ea c6 bf b2 d9 91 ea 3b bf c4 bf
       -0.17904 -0.162086
000220 36 22 18 07 97 8e c5 bf 30 59 26 0d 7f 97 b9 bf
       -0.168414 -0.0999679
000230 d1 78 22 88 f3 70 c4 3f 5f ed 28 ce 51 47 c3 3f
       0.159697 0.150614
000240 60 56 28 d2 fd 9c c2 3f fc aa 5c a8 fc 6b c3 3f
       0.145416 0.151733
000250 69 c7 0d bf 9b 6e c1 3f 67 45 d4 44 9f 8f c4 3f
       0.136188 0.160633
000260 a1 81 58 36 73 48 c2 3f f6 27 f1 b9 13 ec c1 3f
       0.142836 0.140017
000270 b9 e1 77 d3 2d 3b c4 3f 4c ff 92 54 a6 98 c1 bf
       0.158056 -0.137471
000280 62 a3 ac df 4c 4c c5 bf 77 9f e3 a3 c5 19 c3 bf
       -0.166391 -0.149224
000290 1d aa 29 c9 3a 1c c7 bf 0f 57 18 6c 34 ca 74 bf
       -0.180549 -0.00507565
0002a0 8d 93 67 03 55 48 6e 3f 4a 61 de e3 4c 13 c8 bf
       0.0036966 -0.188089
0002b0 4c 1a a3 75 54 35 c5 bf 90 68 02 45 2c 62 c6 bf
       -0.16569 -0.174871
0002c0 1b f2 cf 0c e2 03 c5 bf a4 fb 39 05 f9 d9 c4 3f
       -0.164181 0.162902
0002d0 c5 ac 17 43 39 d1 c8 bf 8b 39 84 01 b6 49 76 bf
       -0.193885 -0.00544139
0002e0 12 d9 07 59 16 4c c2 3f 64 5a 9b c6 f6 5a c4 3f
       0.142947 0.159026
0002f0 19 20 d1 04 8a 58 c2 3f ec 68 1c ea 77 61 c1 3f
       0.143327 0.135787
000300 43 c8 79 ff 1f 27 c4 3f 46 0a 65 e1 eb 6b c5 bf
       0.157444 -0.167356
000310 07 7c 7e 18 21 3c c2 3f 61 38 d7 30 43 e3 c1 3f
       0.14246 0.139748
000320 99 49 d4 0b 3e cd c5 3f f9 bf 23 2a 54 37 c1 3f
       0.170326 0.134501
000330 b9 88 ef c4 ac 17 c5 bf c7 2a a5 67 7a 89 c3 3f
       -0.164785 0.152633
000340 ab 7a f9 9d 26 33 c6 bf 43 e7 35 76 89 ea c3 3f
       -0.173436 0.155595
000350 87 87 30 7e 1a f7 c4 bf 4f 79 74 23 2c 2a c2 3f
       -0.163791 0.141912
000360 f9 82 16 12 30 ba c6 bf 71 8f a5 0f 5d 50 c7 bf
       -0.177557 -0.18214
000370 80 60 8e 1e bf b7 c5 bf 65 fb 90 b7 5c fd c2 3f
       -0.16967 0.148357
000380 bd c3 ed d0 b0 18 c3 3f 6e 69 35 24 ee b1 c2 bf
       0.149191 -0.146055
000390 db 4e 5b 23 82 71 c2 3f 10 78 60 00 e1 43 c3 3f
       0.144089 0.150509
0003a0 d0 7c ce dd ae 97 c6 bf 93 1c b0 ab c9 53 c2 3f
       -0.176504 0.143182
0003b0 73 4a 40 4c c2 85 c4 bf 50 8d 97 6e 12 83 c4 bf
       -0.160332 -0.16025
0003c0 66 a1 9d d3 2c d0 c0 3f e2 ac 88 9a e8 f3 c1 3f
       0.131353 0.140256
0003d0 f5 64 fe d1 37 69 c4 bf a5 2f 84 9c f7 ff c3 3f
       -0.159461 0.156249
0003e0 bf b9 bf 7a dc b7 c2 3f 21 04 e4 4b a8 e0 c4 3f
       0.146236 0.163106
0003f0 90 26 a4 56 14 86 63 bf c7 63 06 2a e3 df c5 3f
       -0.00238327 0.170895
000400 81 ea 1f 44 32 e4 c0 3f cd b1 bc ab 1e 30 c3 3f
       0.131964 0.149906
000410 87 a7 57 ca 32 c4 c3 3f d3 f4 d9 01 d7 15 c3 3f
       0.154425 0.149104
000420 74 cf ba 46 cb 81 c2 3f 5a f3 e3 2f 2d ea c3 3f
       0.144586 0.155584
000430 cf 6a 81 3d 26 52 c6 bf 32 ac e2 8d cc 23 c3 3f
       -0.174382 0.14953
000440 0d fa d2 db 9f 8b c2 3f ed 2c 7a a7 02 ee c1 bf
       0.144886 -0.140076
000450 16 f1 42 df 82 11 a8 3f 23 6a a2 cf 47 19 c3 bf
       0.0470086 -0.149209
000460 70 94 bc 3a c7 80 c2 3f 5e bd 8a 8c 0e 48 c4 bf
       0.144555 -0.158449
000470 1b 9e 5e 29 cb 10 c3 3f a8 c4 75 8c 2b 2e c6 bf
       0.14895 -0.173284
000480 02 2d 5d c1 36 e2 c1 3f 06 64 af 77 7f bc bf bf
       0.139716 -0.12397
000490 26 3b 91 bb 63 0c a7 3f cb 67 79 1e dc 9d c5 bf
       0.0450164 -0.16888
0004a0 a3 04 fd 85 1e 31 c6 bf 6a dc 9b df 30 d1 c6 bf
       -0.173374 -0.178259
0004b0 a8 c3 0a b7 7c 24 c3 bf 24 26 a8 e1 5b 58 c3 bf
       -0.149551 -0.151134
0004c0 9d 9b 36 e3 34 44 c3 bf 3a 05 f9 d9 c8 75 c7 bf
       -0.150519 -0.183282
0004d0 80 9a 5a b6 d6 17 c7 bf 13 f1 d6 f9 b7 cb c4 bf
       -0.180415 -0.162467
0004e0 80 9d 9b 36 e3 34 c6 bf 56 2d e9 28 07 b3 c3 bf
       -0.173489 -0.153901
0004f0 68 79 1e dc 9d b5 bf 3f 16 14 06 65 1a 4d c4 bf
       0.123865 -0.158603
000500 72 e0 d5 72 67 26 c2 3f 8a cb f1 0a 44 4f c2 3f
       0.141797 0.143044
000510 90 6a d8 ef 89 75 c6 bf e8 6a 2b f6 97 dd c1 3f
       -0.175462 0.139575
000520 f3 56 5d 87 6a 4a c2 3f 35 63 d1 74 76 32 c4 3f
       0.142896 0.15779
000530 6d 55 12 d9 07 59 c2 3f 61 f5 ec 5e 93 da b8 3f
       0.143342 0.0970852
000540 c9 3e c8 b2 60 e2 c1 3f 7a 8a 1c 22 6e 4e 75 3f
       0.139721 0.00520175
000550 20 0b d1 21 70 24 c2 bf c5 38 7f 13 0a 11 c6 bf
       -0.141737 -0.172395
000560 61 8d b3 e9 08 e0 c4 bf 09 fd 4c bd 6e 11 c6 bf
       -0.163087 -0.172407
000570 26 ab 22 dc 64 54 c1 3f 0f d6 ff 39 cc 97 c5 bf
       0.135388 -0.168695
000580 66 dc d4 40 f3 39 c7 bf 88 40 3f 9d 3c 76 91 3f
       -0.181456 0.0170526
000590 c6 6d 34 80 b7 40 c6 bf ec a0 12 d7 31 ae c2 3f
       -0.17385 0.145941
0005a0 8a 57 59 db 14 8f c7 bf 96 59 84 62 2b 68 c4 3f
       -0.184054 0.159429
0005b0 4c a4 34 9b c7 61 c0 3f a3 73 7e 8a e3 c0 c3 bf
       0.127984 -0.154324
0005c0 c6 52 24 5f 09 a4 c2 3f 03 99 9d 45 ef 54 c4 bf
       0.145631 -0.158842
0005d0 a8 71 6f 7e c3 44 c5 bf 98 f8 a3 a8 33 f7 c8 bf
       -0.166161 -0.195044
0005e0 ce 8d 86 df 8f d3 7e bf 62 6a 4b 1d e4 f5 c6 bf
       -0.00752598 -0.179379
0005f0 12 32 90 67 97 6f c5 bf 08 90 a1 63 07 95 c6 bf
       -0.167468 -0.176423
000600 ae 9a e7 88 7c 97 c6 bf 96 41 b5 c1 89 e8 c5 bf
       -0.176498 -0.171159
000610 20 a0 56 2c d9 0c b3 3f fe 2c 96 22 f9 4a c4 bf
       0.0744148 -0.158538
000620 6b f0 be 2a 17 2a c7 bf 86 c8 e9 eb f9 9a c3 3f
       -0.180972 0.153167
000630 9e ef a7 c6 4b 37 c3 3f 56 2a a8 a8 fa 95 c4 bf
       0.150125 -0.160827
000640 91 b7 5c fd d8 24 c5 bf 26 53 05 a3 92 3a c5 bf
       -0.165187 -0.16585
000650 75 c9 38 46 b2 47 c2 3f 25 5c c8 23 b8 91 c6 bf
       0.142813 -0.176322
000660 8e 93 c2 bc c7 99 be 3f 84 d9 04 18 96 3f c5 bf
       0.119534 -0.166003
000670 97 39 5d 16 13 9b c5 bf 9b 73 f0 4c 68 92 c2 3f
       -0.168795 0.145093
000680 5c ae 7e 6c 92 1f c3 3f 02 b9 c4 91 07 22 c5 3f
       0.149401 0.165101
000690 7c 42 76 de c6 66 c3 3f 43 e6 ca a0 da e0 c4 bf
       0.151574 -0.163112
0006a0 79 e6 e5 b0 fb 8e c1 3f 8c 66 65 fb 90 b7 c8 bf
       0.137176 -0.193102
0006b0 2e 58 aa 0b 78 99 c5 3f ee 22 4c 51 2e 8d c3 3f
       0.168746 0.152746
0006c0 0d 8e 92 57 e7 18 c6 bf 86 aa 98 4a 3f e1 c6 bf
       -0.172635 -0.178749
0006d0 44 dd 07 20 b5 89 c5 bf b8 8f dc 9a 74 5b c0 3f
       -0.168265 0.127791
0006e0 e0 69 32 e3 6d a5 c3 3f f9 49 b5 4f c7 63 c2 3f
       0.153486 0.14367
0006f0 31 d3 f6 af ac 34 c5 bf 48 4f 91 43 c4 cd c5 bf
       -0.16567 -0.170342
000700 18 b5 fb 55 80 ef c6 bf 65 1c 23 d9 23 d4 bc 3f
       -0.179184 0.112612
000710 e5 0d 30 f3 1d fc c0 3f f8 e1 20 21 ca 17 c4 bf
       0.132694 -0.156976
000720 83 dd b0 6d 51 66 c3 3f a7 20 3f 1b b9 6e c6 bf
       0.15156 -0.175254
000730 90 6a d8 ef 89 75 c6 bf 70 d0 5e 7d 3c f4 c1 3f
       -0.175462 0.140266
000740 4a 28 7d 21 e4 bc c3 3f bc 3c 9d 2b 4a 09 c3 3f
       0.154202 0.148721
000750 41 9c 87 13 98 4e c7 bf 08 3a 5a d5 92 8e c8 bf
       -0.182086 -0.191851
000760 62 9d 2a df 33 12 c3 3f bd 1c 76 df 31 3c c6 bf
       0.148993 -0.173712
000770 d3 f7 1a 82 e3 32 c2 bf 15 8b df 14 56 2a c2 3f
       -0.142178 0.141917
000780 6d fd f4 9f 35 3f c2 bf e7 b3 f2 81 d3 71 b7 3f
       -0.142554 0.0915806
000790 96 76 6a 2e 37 18 c6 bf a4 6e 67 5f 79 90 c6 bf
       -0.172614 -0.176284
0007a0 22 ff cc 20 3e b0 c1 3f a8 aa d0 40 2c 9b c7 bf
       0.138191 -0.184423
0007b0 97 fd ba d3 9d 27 c8 bf dc 2f 9f ac 18 ae c2 3f
       -0.188709 0.145938
0007c0 5d bf 60 37 6c 5b c6 bf f8 df 4a 76 6c 04 c6 3f
       -0.174665 0.17201
0007d0 30 9c 6b 98 a1 f1 c6 3f ba db f5 d2 14 01 c8 bf
       0.179249 -0.187533
0007e0 ac 1f 9b e4 47 fc c4 bf 75 fc fe 6a 61 58 66 3f
       -0.163949 0.00272769
0007f0 73 e8 3e 4a 36 68 b7 3f 80 2a 6e dc 62 7e c6 bf
       0.0914339 -0.175732
