neuralcoref/train/weights/single_mention_bias_layer_0.npy (npy, 8080 bytes, 1 tensors)

array f8 [1000, 1]
00000000: e8a3 8cb8 0034 d1bf 96e9 9788 b7ce cdbf
00000010: 5501 adaf 647d b53f 91f1 2895 f084 d8bf
00000020: 0beb 6b02 b111 7dbf fa52 89fc 44af a03f
00000030: 0c18 6e0a 75a2 a63f 55d9 7745 f0bf d0bf
00000040: 51fa 42c8 79ff bbbf 46fd 3f98 254b b73f
00000050: 2d41 4640 8523 d4bf aeba 0ed5 9464 d2bf
00000060: 4938 e3ea b6fa ac3f d4bb 783f 6ebf d5bf
00000070: 7853 db97 7d68 b8bf 034f 6be4 04b7 8fbf
00000080: 5c54 8b88 62f2 cabf 0589 edee 01ba c3bf
00000090: f101 70a2 4c59 b2bf 8082 8b15 3598 d2bf
000000a0: 3a77 bb5e 9a22 d5bf 01db c188 7d02 d6bf
000000b0: b43e e598 2cee d1bf 4eb7 ec10 ffb0 d2bf
000000c0: 8f21 19d5 96f8 833f 69aa 27f3 8fbe c5bf
000000d0: 9162 8044 1328 d1bf 9f5b 4304 77fb a7bf
000000e0: 0ed8 d5e4 29ab d0bf 780b 2428 7e8c d3bf
000000f0: ab25 1de5 6036 c5bf 9f04 36e7 e099 c23f
00000100: 6965 0cbd 0f51 aebf 3cea f9e4 72cd 96bf
00000110: 4a4c 0636 9d53 a7bf ccb6 d3d6 8860 d8bf
00000120: 5132 39b5 334c d4bf 2985 2f02 19f0 a4bf
00000130: 3ae6 3c63 5fb2 cbbf 223b ca1c 2675 a9bf
00000140: f5cc dc8d 4f12 94bf a359 d93e e42d b3bf
00000150: 4128 efe3 688e b8bf 20be 0287 0618 9cbf
00000160: fad2 db9f 8b86 c4bf bf6c 5e7c a1e5 38bf
00000170: d670 917b baba d5bf a86d c328 081e bbbf
00000180: a6f8 aef7 d15f aebf 772f f7c9 5180 d2bf
00000190: 71e8 2d1e de73 d0bf 26cf abf0 1deb b63f
000001a0: 1caf e53a 32fb 91bf c97d e520 6ca1 793f
000001b0: 12d8 41ca f4f0 7a3f c904 fc1a 4982 cebf
000001c0: 89ec 832c 0b26 c43f fe25 4e93 beb5 a8bf
000001d0: d4e7 b4b8 10f5 b4bf 0d34 9f73 b7eb d6bf
000001e0: 4acf 1521 4cbc 793f 7b7f 283d 7892 893f
000001f0: c2a6 cea3 e2ff ccbf aaf2 3d23 111a d0bf
00000200: 8080 b56a d784 c2bf 179a eb34 d252 c13f
00000210: 09c1 aa7a f99d ccbf 6633 e25d 899b 9ebf
00000220: eccf 8fd0 e000 b0bf de77 0c8f fd2c ae3f
00000230: 2671 5644 4df4 d2bf f585 90f3 fe3f a6bf
00000240: 0e87 a581 1fd5 d0bf 1ba0 34d4 2824 d8bf
00000250: 9153 2a97 7ca2 b3bf 0074 982f 2fc0 d7bf
00000260: 768b c058 dfc0 c0bf 4b21 904b 1c79 d2bf
00000270: 4012 9b34 b2d0 83bf a2ef 6e65 89ce d1bf
00000280: 3dee 5bad 1397 d2bf 32bf e490 1ed0 b7bf
00000290: d7a5 25da 7ec7 7abf f0c3 4142 942f d1bf
000002a0: 0de4 d9e5 5b1f c8bf da75 6f45 6282 c2bf
000002b0: 9551 1b8b 5c26 b3bf 7ab9 991b 1da1 b2bf
000002c0: 884a 2366 f679 c8bf 6d57 e883 656c d0bf
000002d0: 4eb7 ec10 ffb0 d9bf c723 021f cda2 993f
000002e0: 338c bb41 b456 bcbf e57c b1f7 e28b bebf
000002f0: 4d2d 5beb 8b84 d4bf d08a 5efc 23c2 adbf
00000300: fed1 3769 1a14 cbbf 493c 8f40 7221 adbf
00000310: 9f05 fc75 02f5 b33f 56eb 692c 06b4 69bf
00000320: 5cbb fe6e cb91 a33f 32e6 ae25 e483 d4bf
00000330: 6a01 3510 2620 b53f 5306 0e68 e90a c03f
00000340: 4774 cfba 46cb d2bf c7e0 174d 1d9a b2bf
00000350: 0eda ab8f 87be d4bf b128 3630 03df 963f
00000360: 745f ce6c 57e8 c9bf 2d43 1ceb e236 c6bf
00000370: df50 f86c 1d1c ddbf b01f 6283 8593 c2bf
00000380: 0249 d8b7 9388 d5bf 344d d87e 32c6 afbf
00000390: 1713 f648 de94 9dbf b614 ebaf b211 a7bf
000003a0: e69c 8eb6 e0fb b1bf a86d c328 081e d0bf
000003b0: a361 8ca3 cdcc abbf 9eb4 7059 85cd 90bf
000003c0: 4f24 986a 662d d6bf be66 b96c 74ce d1bf
000003d0: 1ec1 8d94 2d92 d5bf 299c f6f7 c6ce 83bf
000003e0: d67a 7544 74be b03f fc1a 4982 7005 b4bf
000003f0: 5ac6 3ce1 dbaa b6bf aca2 89c1 0d42 b43f
00000400: 2fbe 688f 17d2 b9bf 9df1 22b8 36f9 9abf
00000410: 1f47 7364 e597 c3bf 6431 fb86 d393 93bf
00000420: 4dda 54dd 239b c7bf ce52 b29c 84d2 bfbf
00000430: 59f7 8f85 e810 c0bf 7a67 599c d612 9fbf
00000440: 9dd0 9096 6f22 ab3f 04cb 1132 9067 d2bf
00000450: 376d c669 882a ccbf 4a35 fd23 1d2f b2bf
00000460: d45e e921 bf23 a33f 8ca1 5a4c 85db 7e3f
00000470: c541 9d4d a2b9 99bf d1cd fe40 b96d b73f
00000480: 1bf1 6437 33fa bd3f 9317 3ec7 ecd1 b43f
00000490: a648 be12 4889 cbbf 931c b0ab c953 cebf
000004a0: 3513 c259 0009 893f 8ee8 9e75 8d96 d5bf
000004b0: 07b7 b585 e7a5 cabf e5ec 9dd1 5625 a1bf
000004c0: a75b 7688 7fd8 d8bf 6143 26cf abf0 b53f
000004d0: 0056 478e 7406 cabf 52f3 d1b9 0d30 643f
000004e0: 5c05 31d0 b52f d0bf a042 6447 99c3 843f
000004f0: 9da0 4d0e 9f74 d2bf dd72 9aaa 20ab 903f
00000500: c630 2768 93c3 87bf ee5a e784 7588 b6bf
00000510: 80b6 d5ac 33be bfbf b31d 9d04 8074 a33f
00000520: 5b63 2bc3 13d5 b63f a258 b8f6 4f81 9d3f
00000530: 23a1 2de7 525c d4bf 69c6 60cd 1a1f 7abf
00000540: 04ec fe0c ca8f b1bf de04 df34 7d76 d3bf
00000550: 68b6 86ad 3484 b8bf 4914 5ad6 fd63 d5bf
00000560: 31cd 74af 93fa cebf 1f69 705b 5b78 d3bf
00000570: d461 855b 3e92 d1bf 81ea 1f44 32e4 d6bf
00000580: b823 9c16 bce8 bfbf f5a2 76bf 0af0 c7bf
00000590: 89c2 9925 2278 83bf cde5 0643 1d56 d9bf
000005a0: 8bde a980 7b9e cbbf 233a ba00 eabc 9cbf
000005b0: 2117 e64e fa8c a1bf 20eb a9d5 5757 d3bf
000005c0: 0740 dcd5 abc8 d0bf 0246 9737 876b d2bf
000005d0: ce4f 711c 78b5 ccbf f167 78b3 06ef d3bf
000005e0: 957a bbca 7fed b33f 679e 5c53 20b3 b7bf
000005f0: da38 622d 3e05 cabf 9e45 ef54 c03d d7bf
00000600: fdf5 0a0b ee07 c8bf ecf8 2f10 04c8 acbf
00000610: 05ee 8a2a 0d46 863f a113 4207 5dc2 c5bf
00000620: c1c8 cb9a 58e0 cdbf 94bf 7b47 8d09 c9bf
00000630: a20f f16a 14ed b53f b075 a911 fa99 c0bf
00000640: 3322 07db 3e9a b8bf fa7c 9411 1780 d2bf
00000650: a51a 5135 d5ee b2bf 8e1d f928 c874 a5bf
00000660: 9984 0b79 0437 babf da48 23b0 8394 b5bf
00000670: ee60 c43e 0114 d7bf 9162 8044 1328 9abf
00000680: 9dfc cc0f 1258 b33f 45b9 347e e195 d1bf
00000690: 9088 2991 442f 9b3f 76f4 64a3 18c5 a3bf
000006a0: b246 3d44 a33b cebf 12db dd03 745f d3bf
000006b0: 0f6a 1a6f 8676 91bf 09df fb1b b457 bfbf
000006c0: db30 0a82 c7b7 cbbf 01dc 2c5e 2c0c c9bf
000006d0: c02d 5039 c360 80bf 2022 7709 35e0 7f3f
000006e0: 3586 efb3 80bf a6bf b38e 15c2 8b3a 7abf
000006f0: 153a afb1 4b54 d1bf 5793 a7ac a6eb d2bf
00000700: 59f9 6530 4624 d0bf d45d 7e4c 101a b2bf
00000710: 9f79 94a5 31b5 80bf b1a7 1dfe 9aac cfbf
00000720: f417 7ac4 e8b9 d3bf 931b 45d6 1a4a b9bf
00000730: d491 2b0e caa8 703f af7a c03c 64ca c3bf
00000740: 6304 f97e 0f03 a2bf 7e2a b869 7ddb 6d3f
00000750: cfbc ec3c c9d4 4fbf 153a afb1 4b54 d8bf
00000760: de04 df34 7d76 c8bf 35c3 5785 178e 99bf
00000770: b069 ef9d e282 95bf cd8f bfb4 a84f d5bf
00000780: 66da fe95 9526 c5bf cc08 6f0f 4240 d5bf
00000790: e9ee 3a1b f2cf d2bf 2ac4 c837 8023 b23f
000007a0: fa5e 4370 5cc6 c7bf 982c 9386 bfcb b3bf
000007b0: f3ef e9a0 01ab a9bf 0885 52c5 9e87 b6bf
000007c0: 083a 5ad5 928e c2bf a0f9 9cbb 5d2f cdbf
000007d0: c957 0229 b16b c33f ddce bef2 203d c5bf
000007e0: f033 2e1c 08c9 ccbf 2727 24e3 6256 b1bf
000007f0: e195 24cf f57d a03f 20eb a9d5 5757 d0bf
-0.268799 -0.232871 0.0839446 -0.383114 -0.00709695 0.0325872 0.0442082 -0.261715
-0.109367 0.0909904 -0.314668 -0.287389 0.0566003 -0.339809 -0.0953444 -0.0154858
-0.210522 -0.154114 -0.0716751 -0.29054 -0.330237 -0.343902 -0.280162 -0.292053
0.00975149 -0.169878 -0.268071 -0.0468404 -0.260447 -0.30545 -0.165722 0.145321
-0.0592122 -0.0222681 -0.0455598 -0.380892 -0.317151 -0.0408943 -0.216381 -0.0497219
-0.0196011 -0.074919 -0.095923 -0.0274354 -0.160356 -0.000379898 -0.339522 -0.105927
-0.0593248 -0.289082 -0.257072 0.0895251 -0.0175598 0.00625746 0.00657745 -0.238351
0.157411 -0.0482616 -0.0818644 -0.358137 0.00628309 0.0124864 -0.226559 -0.251591
-0.144679 0.13534 -0.223571 -0.0298902 -0.0625134 0.058937 -0.296161 -0.043457
-0.263008 -0.377207 -0.0766981 -0.371105 -0.130886 -0.288642 -0.0096754 -0.278231
-0.290471 -0.0930194 -0.00653791 -0.268529 -0.188457 -0.144604 -0.0748041 -0.0727709
-0.191222 -0.256616 -0.401428 0.0250351 -0.110698 -0.119322 -0.32059 -0.0581218
-0.211551 -0.0568958 0.0779573 -0.0031376 0.0382217 -0.32055 0.0825218 0.125333
-0.293657 -0.0726641 -0.324129 0.0223351 -0.202403 -0.17355 -0.454841 -0.145127
-0.336461 -0.062059 -0.0288882 -0.0450569 -0.0702496 -0.251833 -0.0542969 -0.016409
-0.346521 -0.278226 -0.337047 -0.00967174 0.0654061 -0.078208 -0.0885446 0.0791329
-0.100862 -0.0263413 -0.153073 -0.0191186 -0.184422 -0.124306 -0.125516 -0.0303453
0.0529971 -0.287571 -0.220048 -0.0710314 0.0373821 0.00753357 -0.0251222 0.091518
0.117099 0.0813282 -0.215127 -0.236932 0.0122242 -0.337314 -0.208188 -0.033488
-0.388214 0.0857036 -0.203322 0.00246432 -0.252912 0.0101387 -0.288368 0.0162778
-0.0116035 -0.0880197 -0.123996 0.0379982 0.0891888 0.0288136 -0.318135 -0.00637732
-0.0686003 -0.304107 -0.0957673 -0.334228 -0.242022 -0.304221 -0.274551 -0.357678
-0.124645 -0.187013 -0.00950648 -0.395881 -0.215774 -0.0280644 -0.0342787 -0.302206
-0.262248 -0.287813 -0.224288 -0.311464 0.0778427 -0.092577 -0.203285 -0.363144
-0.187742 -0.0562135 0.0108758 -0.169994 -0.233409 -0.195604 0.0856488 -0.129699
-0.0961036 -0.289068 -0.0739568 -0.0419066 -0.102402 -0.0842974 -0.360596 -0.0255435
0.0755626 -0.274773 0.0265475 -0.0386131 -0.236195 -0.302701 -0.0170537 -0.122432
-0.216546 -0.195684 -0.00799706 0.00778218 -0.0444298 -0.00640349 -0.27077 -0.295633
-0.252214 -0.0707102 -0.0081581 -0.247455 -0.308222 -0.098787 0.00406722 -0.154614
-0.0351796 0.0036447 -0.000971411 -0.380145 -0.191116 -0.0249561 -0.0210071 -0.332987
-0.16524 -0.332047 -0.293942 0.0708542 -0.185741 -0.0773277 -0.0501328 -0.0880069
-0.144976 -0.228008 0.151724 -0.165928 -0.224885 -0.0677244 0.032211 -0.255331
