neuralcoref/weights/pair_mentions_weights_layer_3.npy (npy, 4080 bytes, 1 tensors)

array f8 [1, 500]
00000000: 4758 54c4 e924 de3f 4c8b fa24 77d8 ccbf
00000010: 492d 944c 4eed de3f 7193 5165 1877 e23f
00000020: 2a54 3717 7fdb c1bf f7e8 0df7 915b c3bf
00000030: 419e 5dbe f561 c3bf 3a05 f9d9 c875 dc3f
00000040: 3f8c 101e 6d1c bdbf c2f8 69dc 9bdf c2bf
00000050: 6309 6b63 ec84 c7bf 9ad1 8f86 53e6 dd3f
00000060: d5cf 9b8a 5418 c5bf f6ec b94c 4d82 d93f
00000070: ab93 3314 77bc c1bf 75b0 fecf 61be c8bf
00000080: f5a0 a014 addc d93f b4e9 08e0 66f1 d53f
00000090: c8ee 0225 0516 d93f ff96 00fc 53aa da3f
000000a0: 33e1 97fa 7953 cfbf 6a89 95d1 c8e7 c3bf
000000b0: d044 d8f0 f44a c9bf 5cc9 8e8d 40bc cabf
000000c0: dcd4 40f3 3977 c9bf d997 6c3c d862 cbbf
000000d0: f19d 98f5 6228 d73f eb3a 5453 9275 cabf
000000e0: 33c4 b12e 6ea3 d93f c66f 0a2b 1554 c6bf
000000f0: e2c9 6e66 f4a3 dc3f c075 c58c f0f6 c2bf
00000100: 6b11 514c de00 cfbf d122 dbf9 7e6a c2bf
00000110: 4914 5ad6 fd63 df3f 2d97 8dce f929 c4bf
00000120: dbfd 2ac0 779b c1bf 164b 917c 2590 cabf
00000130: fa2b 64ae 0caa c9bf db33 4b02 d4d4 c4bf
00000140: 47e9 d2bf 2495 c3bf 8544 dac6 9fa8 c8bf
00000150: b420 94f7 7134 dc3f ce6d c2bd 32ef e13f
00000160: 39d1 ae42 ca4f db3f 9835 b1c0 5774 dc3f
00000170: 0f62 670a 9dd7 c8bf ed83 2c0b 26fe dc3f
00000180: 0dc6 8844 a165 c5bf b3ce f8be b8d4 e13f
00000190: 64e5 97c1 1891 c0bf fe7f 9c30 6134 c9bf
000001a0: c6a6 9542 2097 da3f c2f6 9331 3ecc cabf
000001b0: e5ec 9dd1 56a5 e13f 2c0f d253 e410 c9bf
000001c0: 9489 5b05 31d0 c9bf 768c 2b2e 8eca c9bf
000001d0: 0d6e 6b0b cf4b c7bf 56ef 703b 342c c4bf
000001e0: b742 588d 25ac cbbf 5c38 1092 054c c2bf
000001f0: 3524 eeb1 f4a1 cfbf efcb 99ed 0a7d c8bf
00000200: c633 68e8 9fe0 c2bf 603d ee5b ad13 dd3f
00000210: 9301 a08a 1bb7 c8bf d674 3dd1 75e1 db3f
00000220: 1618 b2ba d573 c4bf a110 0187 50a5 dd3f
00000230: 9be6 1da7 e848 c2bf 5321 1e89 97a7 bfbf
00000240: 5114 e813 7992 dd3f 0743 1d56 b8e5 c3bf
00000250: 137e a99f 3715 c9bf e065 868d b27e c3bf
00000260: ab77 b81d 1a16 df3f 1d01 dc2c 5e2c c4bf
00000270: 0bf0 dde6 8d93 dd3f 3354 c554 fa09 dd3f
00000280: 2940 14cc 9882 cfbf 1a52 45f1 2a6b dc3f
00000290: e337 8595 0a2a c6bf eed0 b018 75ad cbbf
000002a0: 5930 f147 5167 c4bf dd7d 8e8f 1667 c0bf
000002b0: b9e0 0cfe 7e31 db3f 0283 a44f abe8 d43f
000002c0: 9372 f739 3e5a c2bf ec4e 779e 78ce c6bf
000002d0: 03d1 9332 a9a1 c9bf d715 33c2 db83 c8bf
000002e0: c460 fe0a 992b cbbf 9bfe ec47 8ac8 e03f
000002f0: 726e 13ee 9579 c9bf 28d2 fd9c 82fc cabf
00000300: 965b 5a0d 897b d53f 4834 8122 16b1 e03f
00000310: 6891 ed7c 3f35 dc3f 66db 696b 4430 df3f
00000320: a721 aaf0 6778 dc3f 49d5 7613 7cd3 ccbf
00000330: 4392 59bd c3ed c6bf bb60 70cd 1dfd c5bf
00000340: b2d8 2615 8db5 dc3f f0db 10e3 35af babf
00000350: e9d3 2afa 4333 db3f 448a 0112 4da0 c6bf
00000360: 46b2 47a8 1952 c9bf 363e 93fd f334 e13f
00000370: b341 2619 390b d83f 74ed 0be8 853b c3bf
00000380: a5dc 7d8e 8f16 c3bf 5c38 1092 054c dc3f
00000390: 6a88 2afc 195e e03f 6878 b306 efab c4bf
000003a0: e718 90bd defd d63f 386a 85e9 7b0d c5bf
000003b0: 73d9 e89c 9fe2 db3f 9948 6936 8fc3 dd3f
000003c0: 4dd8 7e32 c687 c5bf 9a97 c3ee 3b86 c5bf
000003d0: 69c5 3714 3e5b cbbf a989 3e1f 65c4 df3f
000003e0: 2959 4e42 e90b c5bf 0821 205f 4205 d43f
000003f0: 98a2 5c1a bff0 c0bf c30e 63d2 df4b bdbf
00000400: e2ea 0088 bb7a c9bf 145f ed28 ce51 e13f
00000410: 2d98 f8a3 a8b3 e03f 4e9c dcef 5014 db3f
00000420: ecbd f8a2 3d5e dc3f 8def 8b4b 55da db3f
00000430: 9ace 4e06 47c9 de3f 62d9 cc21 a985 c6bf
00000440: fe65 f7e4 61a1 dd3f e695 eb6d 3315 babf
00000450: ccb4 fd2b 2b4d bebf c3e6 6f84 3dd4 63bf
00000460: 2173 6550 6d70 ccbf bc92 e4b9 be0f c3bf
00000470: cea5 b8aa ecbb bebf 90a1 6307 95b8 da3f
00000480: eeee 01ba 2f67 cabf b251 101b b0d4 78bf
00000490: 726e 13ee 9579 de3f 5322 895e 46b1 c4bf
000004a0: 698f 17d2 e121 df3f 1cb2 8174 b169 dd3f
000004b0: e02a 4f20 ec14 c5bf 62f4 dc42 5722 cabf
000004c0: 41b9 6ddf a3fe d93f f854 4e7b 4ace d73f
000004d0: efff e384 09a3 c5bf 307f 85cc 9541 c9bf
000004e0: e7a9 0eb9 196e c8bf 0f97 1c77 4a07 d83f
000004f0: dd22 30d6 3730 cdbf 753f a720 3f1b c5bf
00000500: 016a 6ad9 5a5f c0bf 63ee 5a42 3ee8 c5bf
00000510: b45b cb64 389e dd3f c092 ab58 fca6 c0bf
00000520: 1e4f cb0f 5ce5 de3f b08c 0ddd ec0f cabf
00000530: 31ec 3026 fdbd c6bf c1c5 8a1a 4cc3 de3f
00000540: 8029 0307 b474 a1bf e197 fa79 5391 dd3f
00000550: 08c9 0226 70eb c4bf b1dd 3d40 f7e5 dd3f
00000560: 9e43 19aa 622a cbbf 761b d47e 6b27 c8bf
00000570: 76ff 5888 0e81 c5bf 211f f46c 567d cabf
00000580: e750 86aa 984a db3f c218 9128 b4ac d93f
00000590: e8fa 3e1c 2444 e03f 001e 51a1 bab9 c4bf
000005a0: 2a56 0dc2 dcee b9bf ee43 de72 f563 c5bf
000005b0: 085b ecf6 5965 c6bf 5649 641f 6459 bcbf
000005c0: 9011 50e1 0852 df3f 9143 c4cd a964 db3f
000005d0: 0036 2042 5c39 c3bf 3a74 7ade 8d05 c5bf
000005e0: 469a 7807 78d2 bebf 6add 06b5 dfda c7bf
000005f0: c173 efe1 92e3 d93f ac1a 84b9 ddcb cbbf
00000600: 0aa2 ee03 90da de3f d74d 29af 95d0 dc3f
00000610: a8fd d64e 9484 cabf f65e 7cd1 1e2f c6bf
00000620: 2c82 ffad 64c7 ccbf c781 57cb 9d99 cabf
00000630: 4910 ae80 423d c9bf 0055 dcb8 c5fc db3f
00000640: 0711 0423 8a24 65bf 33de 567a 6d36 c8bf
00000650: bcb1 a030 28d3 c8bf 40bd 1935 5f25 c9bf
00000660: d21c 59f9 6530 cabf 062b 4eb5 1666 cbbf
00000670: 21ce c309 4ca7 c3bf 62be bc00 fbe8 cabf
00000680: 7d28 2c4c 3a25 afbf d5cb ef34 99f1 dd3f
00000690: a88b 14ca c2d7 e13f 249a 4011 8b18 d93f
000006a0: 2bfb ae08 feb7 da3f b6f2 92ff c9df da3f
000006b0: 950d 6b2a 8bc2 c2bf 41bb 438a 0112 dc3f
000006c0: a5f3 e159 820c e03f 323b 8bde a980 d93f
000006d0: 6231 ea5a 7b9f c4bf a56a bb09 be69 c2bf
000006e0: bd6f 7ced 9925 c9bf e735 7689 eaad c7bf
000006f0: f94b 8bfa 2477 c4bf 4145 d5af 743e c8bf
00000700: 3f8f 519e 7939 c2bf bb0c ffe9 060a ccbf
00000710: 43fe 9941 7ce0 e13f 22df a5d4 25e3 c6bf
00000720: ff1f 274c 184d e03f 2e92 76a3 8ff9 c4bf
00000730: de02 098a 1f63 c6bf b7b4 1a12 f758 c0bf
00000740: 51f7 0148 6de2 d63f 2bdd 5d67 43fe c7bf
00000750: d447 e00f 3fff c7bf dc74 159c 0b6d b8bf
00000760: c555 65df 15c1 db3f c7b9 4db8 57e6 c5bf
00000770: 371b 2b31 cf4a c6bf 390b 7bda e1af d93f
00000780: 28b9 c326 3273 e03f 3a95 0c00 55dc c8bf
00000790: d940 bad8 b452 bcbf 0211 e2ca d9bb e13f
000007a0: 3ab0 1c21 0379 c4bf 3a57 9412 8255 c5bf
000007b0: 363a e7a7 380e c8bf 2ca0 504f 1f81 c7bf
000007c0: 4d2d 5beb 8b84 ccbf 57b0 8d78 b29b c3bf
000007d0: 6fb7 2407 ec6a dd3f 6281 afe8 d66b cabf
000007e0: 7940 d994 2bbc c7bf d999 42e7 3576 c1bf
000007f0: 8481 e7de c325 db3f 6491 26de 019e c4bf
0.471003 -0.225356 0.483234 0.577038 -0.139511 -0.151232 -0.151427 0.444689
-0.113715 -0.147449 -0.183744 0.467183 -0.164805 0.398578 -0.138564 -0.19331
0.404094 0.342859 0.391969 0.416646 -0.244735 -0.155511 -0.1976 -0.20887
-0.198951 -0.213954 0.36184 -0.206713 0.4006 -0.174441 0.447507 -0.148161
-0.242214 -0.143875 0.490478 -0.157531 -0.137557 -0.207524 -0.200502 -0.162745
-0.152989 -0.192646 0.440701 0.560449 0.426745 0.444601 -0.19408 0.453012
-0.167164 0.557217 -0.129428 -0.196911 0.415474 -0.209358 0.551433 -0.195828
-0.201666 -0.201494 -0.182001 -0.157599 -0.216191 -0.142945 -0.24713 -0.191316
-0.14748 0.454326 -0.193088 0.435636 -0.159785 0.463215 -0.14285 -0.123651
0.462065 -0.155448 -0.19596 -0.152304 0.485724 -0.157604 0.462131 0.453734
-0.246173 0.444041 -0.173158 -0.216231 -0.159403 -0.128146 0.424896 0.326701
-0.143379 -0.178176 -0.200246 -0.191524 -0.212268 0.52448 -0.199023 -0.210831
0.335665 0.521617 0.44075 0.487321 0.444849 -0.225204 -0.179131 -0.171787
0.448581 -0.104236 0.425004 -0.176767 -0.197818 0.537714 0.375685 -0.150254
-0.149126 0.44214 0.511487 -0.161497 0.359245 -0.164474 0.435707 0.465061
-0.168206 -0.168159 -0.213722 0.496362 -0.164426 0.312821 -0.132347 -0.114439
-0.199058 0.541236 0.521931 0.423115 0.443252 0.435201 0.481035 -0.175954
0.462975 -0.101886 -0.118365 -0.00242054 -0.222181 -0.148918 -0.120055 0.417516
-0.206274 -0.00606221 0.476171 -0.16166 0.486443 0.459576 -0.164701 -0.204173
0.406167 0.371966 -0.169038 -0.197314 -0.19086 0.375445 -0.228034 -0.164894
-0.12791 -0.17115 0.462782 -0.130096 0.482749 -0.203611 -0.177673 0.48067
-0.0340935 0.461995 -0.163435 0.467161 -0.212231 -0.188703 -0.168001 -0.20695
0.426428 0.401166 0.508318 -0.161918 -0.101301 -0.167113 -0.174968 -0.110739
0.489382 0.428019 -0.150188 -0.164232 -0.120399 -0.186367 0.404515 -0.217159
0.48209 0.450231 -0.207171 -0.173313 -0.224835 -0.207813 -0.197182 0.437303
-0.0025809 -0.189161 -0.193944 -0.196453 -0.204602 -0.214053 -0.153543 -0.210235
-0.0608309 0.467871 0.557588 0.392123 0.41748 0.419909 -0.146562 0.438599
0.501527 0.398478 -0.161117 -0.143852 -0.19646 -0.184995 -0.159886 -0.189406
-0.142379 -0.219056 0.558653 -0.178807 0.509411 -0.163866 -0.1749 -0.127715
0.35757 -0.187447 -0.187477 -0.0954139 0.43366 -0.171092 -0.174158 0.40136
0.514062 -0.194224 -0.110637 0.554181 -0.159943 -0.166672 -0.187934 -0.183628
-0.222795 -0.153189 0.459651 -0.206416 -0.18543 -0.13642 0.42418 -0.161072
