neuralcoref/weights/pair_mentions_bias_layer_2.npy (npy, 4080 bytes, 1 tensors)

array f8 [500, 1]
000000 de 13 35 e2 13 fc b8 3f 4b c2 cf c9 9c 78 88 bf
       0.0975964 -0.0119488
000010 7f 17 11 20 9e 80 b9 3f 75 00 c4 5d bd 8a bc 3f
       0.0996188 0.111492
000020 18 52 b0 8c 2e eb 65 bf 3b 00 7f 84 a3 dc 74 bf
       -0.00267562 -0.00509323
000030 c8 ab 9c 8b f9 98 53 bf 5b 4c 22 b1 93 b0 b7 3f
       -0.00119614 0.0925381
000040 f7 99 cc db 85 a4 5e bf ea a4 4a d6 d9 77 72 bf
       -0.00187028 -0.00450883
000050 ef 4b 47 4a c4 a5 94 bf 6a 08 d8 58 d3 06 b9 3f
       -0.0201636 0.0977604
000060 54 0d 90 a2 ad ce 5a bf b7 08 8c f5 0d 4c ba 3f
       -0.00163619 0.102723
000070 1a 5c 4a c8 cd 91 61 bf df 8c 9a af 92 8f 8d bf
       -0.00214472 -0.014434
000080 5e 79 da 2b 3d e4 b7 3f 02 65 53 ae f0 2e bf 3f
       0.0933264 0.12181
000090 8f c6 a1 7e 17 b6 ba 3f bc bb 84 f9 e1 d6 b5 3f
       0.104341 0.0853101
0000a0 7e 26 b1 5a 4f 63 91 bf 6c f8 cc 48 73 1a 68 bf
       -0.0169804 -0.0029423
0000b0 88 4f d7 66 a5 41 80 bf f9 c0 e9 b8 75 92 80 bf
       -0.00793771 -0.00809185
0000c0 c7 8d 32 4d 9e d3 80 bf 87 9b 5b 3a 49 67 7e bf
       -0.00821613 -0.00742272
0000d0 f3 aa ce 6a 81 3d be 3f 0f 81 23 81 06 9b 92 bf
       0.118126 -0.0181695
0000e0 87 98 5c d6 0e 90 b9 3f 22 0d 97 ea 3c 09 60 bf
       0.0998544 -0.00195753
0000f0 85 cb cf b2 93 66 b8 3f 73 8d 64 c9 fb bc 72 bf
       0.0953152 -0.00457476
000100 65 ab cb 29 01 31 89 bf 90 cc 34 ab 88 e4 65 bf
       -0.0123005 -0.00267245
000110 b9 54 a5 2d ae f1 b9 3f 41 e1 3f 1f 5d 53 7d bf
       0.101344 -0.00715958
000120 de c2 56 eb 2d ee 12 3f c7 24 6d f4 7b ac 8a bf
       7.22137e-05 -0.0130243
000130 e1 dd 80 85 82 08 87 bf 46 cc 91 3a a6 93 71 bf
       -0.0112467 -0.0042912
000140 c0 ad dc 87 93 66 81 bf 2b b2 8c c3 4f d2 92 bf
       -0.00849643 -0.0183804
000150 47 5a 85 28 ba 89 b7 3f 8e 3d 7b 2e 53 93 bc 3f
       0.0919453 0.111623
000160 f5 5e c6 5e 39 8c b7 3f fd e5 49 88 a8 78 b8 3f
       0.0919834 0.0955911
000170 9c bc 0a 21 ce 60 7f bf 68 3a e0 5f a9 d3 b6 3f
       -0.00766068 0.0891672
000180 30 41 d3 33 39 8c 64 bf d1 40 2c 9b 39 24 bd 3f
       -0.00250827 0.113834
000190 c5 61 61 6f ff 1d 33 bf 4e 55 eb 0e 73 93 92 bf
       -0.000291705 -0.0181406
0001a0 37 e3 34 44 15 fe b6 3f 74 3d 76 bc 6e b6 8e bf
       0.0898145 -0.0149964
0001b0 bf 0f 07 09 51 be bc 3f 21 ea 3e 00 a9 4d 94 bf
       0.112279 -0.0198275
0001c0 6f 7b 27 0b 04 a6 90 bf bb 8d 7a 46 2a a5 7a bf
       -0.0162583 -0.00650517
0001d0 da 9b 8c e8 a6 e6 75 bf 43 2b a4 ba 88 08 72 bf
       -0.00534692 -0.00440267
0001e0 64 81 a7 77 8e 54 81 bf e9 10 17 04 7f 8d 5e bf
       -0.00846206 -0.00186479
0001f0 2a 64 f8 99 c4 6a 95 bf 50 34 b4 a6 1e 0e 87 bf
       -0.0209151 -0.0112574
000200 cd 55 14 2b 7a 12 5e bf 18 ce 35 cc d0 78 ba 3f
       -0.00183546 0.103406
000210 e1 cd bf 02 3d 79 95 bf d1 0d a8 92 5c 59 b7 3f
       -0.0209703 0.0912073
000220 f2 ac 8b 78 3e 45 76 bf dd 43 c2 f7 fe 06 b9 3f
       -0.00543713 0.097763
000230 ba 8a 83 53 38 e5 6e bf 56 db c9 b7 a9 47 6b 3f
       -0.00377141 0.00333007
000240 c4 7c 79 01 f6 d1 b7 3f ca 27 d8 3d 81 c9 60 bf
       0.0930475 -0.00204921
000250 5c b8 62 35 4c 23 94 bf f3 7a 49 c6 de 49 53 bf
       -0.0196659 -0.00117728
000260 3e 68 2c 50 41 34 b9 3f a4 01 17 bf 84 65 77 bf
       0.0984536 -0.00571205
000270 90 f8 15 6b b8 c8 b7 3f 86 27 aa 6d 79 9b b7 3f
       0.0929065 0.0922161
000280 e9 88 32 0a 38 3a 95 bf 48 0b e1 e2 f2 69 b7 3f
       -0.0207299 0.0914604
000290 15 1f 3c 66 e2 4e 80 bf 30 a9 90 e1 67 12 8b bf
       -0.00796296 -0.0132187
0002a0 86 8f 46 0d bf fe 58 bf f8 48 52 eb 60 71 66 bf
       -0.00152558 -0.00273961
0002b0 51 a0 4f e4 49 d2 b9 3f c8 24 23 67 61 4f bf 3f
       0.100865 0.122305
0002c0 f5 82 0d 57 20 dd 6c bf 50 c4 94 db 05 69 37 3f
       -0.00352341 0.000357212
0002d0 a1 15 b5 87 ff 6c 82 bf c0 d0 23 46 cf 2d 94 bf
       -0.00899696 -0.019706
0002e0 2f aa a0 fd a3 ca 93 bf 9b 37 4e 0a f3 1e bb 3f
       -0.0193277 0.105941
0002f0 00 80 ef 78 8b 6e 82 bf 4f 2c a6 88 c2 1d 96 bf
       -0.00899991 -0.0215979
000300 6f d4 0a d3 f7 1a c0 3f 1d 1d 57 23 bb d2 ba 3f
       0.125823 0.104778
000310 91 02 55 ed e4 1d b7 3f bb d4 08 fd 4c bd ba 3f
       0.0902999 0.104451
000320 94 20 12 74 6a 1d b7 3f 6b d9 94 0a ae e2 82 bf
       0.0902926 -0.00922142
000330 78 a9 22 26 f2 6e 86 bf 04 05 0e 03 be 24 43 bf
       -0.0109538 -0.000584214
000340 a9 a0 a2 ea 57 3a b7 3f 42 0f 8c ee e6 ca 4c 3f
       0.090734 0.00087868
000350 f0 4c 0d d9 e5 00 b8 3f 02 8d ca 34 37 32 71 bf
       0.0937637 -0.00419828
000360 e9 52 12 c8 db 00 92 bf 42 cf 66 d5 e7 6a bb 3f
       -0.0175814 0.1071
000370 4c 89 24 7a 19 c5 ba 3f c5 23 0a 90 15 ba 5a 3f
       0.10457 0.00163128
000380 c7 e0 9b 85 c1 25 75 bf 76 88 24 1f 60 52 b9 3f
       -0.00516296 0.0989132
000390 57 5d 87 6a 4a b2 ba 3f 3b da fe b6 a3 0f 78 bf
       0.104283 -0.00587429
0003a0 b5 6c ad 2f 12 da be 3f b4 d1 52 dc 65 7d 52 bf
       0.120515 -0.00112853
0003b0 57 14 65 25 9c cc b6 3f 19 27 74 4d 37 3f b8 3f
       0.0890596 0.0947146
0003c0 09 70 d5 d0 61 19 76 bf c6 b0 79 0b da 9a 73 bf
       -0.0053953 -0.00478635
0003d0 a9 12 65 6f 29 e7 8b bf 2e 72 4f 57 77 2c ba 3f
       -0.0136245 0.102241
0003e0 a0 e7 cb e2 30 5e 74 bf de 04 df 34 7d 76 c0 3f
       -0.00497264 0.128616
0003f0 ce 92 5b ee 27 be 65 bf c9 c9 82 91 b0 d2 61 bf
       -0.00265415 -0.00217566
000400 3e 60 79 eb 57 95 88 bf 53 eb fd 46 3b 6e bc 3f
       -0.0120036 0.111057
000410 80 49 2a 53 cc 41 bc 3f 07 c2 04 24 50 b3 b6 3f
       0.110379 0.0886736
000420 21 b4 79 77 bf 65 b9 3f cb 7e 82 30 5c c2 b6 3f
       0.0992088 0.0889032
000430 1d 1c ec 4d 0c c9 b9 3f 20 6c 67 4e 4d 38 8a bf
       0.100724 -0.0128027
000440 61 49 03 89 37 7c b8 3f 7f b6 1f 3a 4e 1b 2f 3f
       0.0956454 0.000237325
000450 8e 1d 1a 37 b1 97 68 bf f2 2d 07 d5 61 e0 94 bf
       -0.00300202 -0.0203872
000460 47 a2 e1 de 46 14 94 bf d9 b4 ce cf 3f 87 6a bf
       -0.0196086 -0.00323832
000470 11 9f 01 16 75 bd 5f bf cc a1 a0 6f 66 4f b9 3f
       -0.00193726 0.0988678
000480 f1 8e 42 48 cc a2 86 bf f3 f3 95 f6 bc d1 8d bf
       -0.0110527 -0.0145602
000490 bb 09 be 69 fa ec b8 3f bc 29 dd 44 ca a2 62 bf
       0.097366 -0.00227489
0004a0 ef 8e 8c d5 e6 ff b9 3f 5b 66 6c 43 20 f2 b7 3f
       0.101561 0.0935383
0004b0 3b 06 bf 68 ea d0 84 bf 29 7f 52 48 8d 64 92 bf
       -0.0101641 -0.0179617
0004c0 ca c3 42 ad 69 de b9 3f 94 11 17 80 46 e9 ba 3f
       0.10105 0.105122
0004d0 42 4c 36 dc 4f df 65 bf 1f 90 d7 c5 65 c3 77 bf
       -0.00266996 -0.00580158
0004e0 c7 c6 0f d7 62 9e 72 bf 91 ed 7c 3f 35 5e ba 3f
       -0.00454558 0.103
0004f0 b3 41 26 19 39 0b 8b bf 86 9b 00 81 d6 15 66 bf
       -0.013205 -0.00269596
000500 09 6b 75 cf 40 80 4a 3f 55 72 ca b3 fd f1 7f bf
       0.000808746 -0.00779914
000510 8f 55 4a cf f4 12 b9 3f 31 e9 b5 fa 66 72 6c bf
       0.0979455 -0.00347252
000520 34 0c c4 57 e0 d0 b8 3f 53 e2 df 0c a3 c5 7e bf
       0.0969372 -0.0075127
000530 1c c2 84 13 c9 3e 75 bf 41 39 c0 82 ea d5 b8 3f
       -0.00518683 0.0970141
000540 cb a2 2c 53 fe 7b 61 3f 55 8a 1d 8d 43 fd ba 3f
       0.00213432 0.105427
000550 ae d4 16 4b 4f 60 63 bf e5 c5 d3 3c 91 71 b8 3f
       -0.00236526 0.0954829
000560 6e a5 d7 66 63 25 86 bf 9d e8 04 7e 9e 50 91 bf
       -0.0108135 -0.0169091
000570 d2 c1 1b 4e 70 1c 6e bf f5 96 17 05 66 2a 91 bf
       -0.00367567 -0.0167633
000580 1d 49 38 e3 ea b6 b8 3f 12 da 72 2e c5 55 b7 3f
       0.0965411 0.0911525
000590 ef 54 c0 3d cf 9f ba 3f fc fe 8b 6f 41 19 67 bf
       0.104001 -0.00281966
0005a0 cb 08 77 80 8a 57 57 bf 63 76 1e 2e 9c 18 70 bf
       -0.00142468 -0.00392972
0005b0 7e a3 04 9a 5b 63 78 bf c4 98 f4 f7 52 78 60 3f
       -0.00595413 0.0020105
0005c0 fa 5d 7d e1 3a 6b b8 3f 42 7c 60 c7 7f 81 b6 3f
       0.0953862 0.0879135
0005d0 4b 1c 1e 67 3f f7 7a bf fc 1b 51 2d 64 a6 6b bf
       -0.00658345 -0.00337524
0005e0 3f e5 b9 3a d7 62 6d bf e2 6b 19 ba 23 ad 92 bf
       -0.00358717 -0.0182386
0005f0 8d 63 24 7b 84 9a b7 3f 52 6b 50 ea 81 45 94 bf
       0.0922015 -0.0197964
000600 7d 5c 1b 2a c6 f9 b7 3f 91 68 5d fe 9e b3 b8 3f
       0.093655 0.0964908
000610 5e 6f 51 1c f6 31 95 bf 58 80 a5 a9 54 3f 75 bf
       -0.0206984 -0.00518735
000620 a4 fa ce 2f 4a d0 8f bf 4e cc 1f 78 21 c2 94 bf
       -0.015534 -0.0202718
000630 6a f0 08 b8 31 87 8e bf 78 a5 1b 17 c4 f6 b7 3f
       -0.0149063 0.0936091
000640 1e b4 0d 92 f4 1f 90 bf c0 ef 5b 84 94 65 79 bf
       -0.0157469 -0.00620039
000650 f2 9f 24 13 a6 de 79 bf e6 54 d7 46 e1 1f 93 bf
       -0.00631585 -0.0186763
000660 26 39 60 57 93 a7 8c bf d4 88 4f f0 03 46 8d bf
       -0.0139915 -0.0142937
000670 d5 8a 3e 38 02 65 71 bf 1a 60 30 c9 12 e7 92 bf
       -0.00424672 -0.0184596
000680 3b 27 8b 35 3b d6 65 3f 8b 51 d7 da fb 54 b9 3f
       0.00266563 0.098953
000690 4f 74 5d f8 c1 f9 bc 3f e5 29 ab e9 7a a2 bb 3f
       0.113186 0.107948
0006a0 b7 3e 51 7e f7 33 b7 3f 7e df 64 c0 fe 90 b5 3f
       0.0906367 0.0842437
0006b0 41 43 16 a1 8c 7c 44 bf ff f5 c0 7d d3 aa b6 3f
       -0.000625199 0.0885441
0006c0 46 0c 3b 8c 49 7f bb 3f a5 f9 63 5a 9b c6 ba 3f
       0.107411 0.104593
0006d0 42 ad cc 08 2d f3 7f bf 2d 1c 9c 9a 18 0a f0 be
       -0.00780027 -1.52964e-05
0006e0 55 de 8e 70 5a f0 92 bf 84 74 e3 a3 e6 27 7c bf
       -0.018495 -0.00687399
0006f0 22 3d 17 d6 25 94 42 3f 15 73 10 74 b4 aa 95 bf
       0.000566977 -0.021159
000700 0d e0 eb 73 ce b2 6b bf 28 6d 60 61 77 70 96 bf
       -0.00338116 -0.0219134
000710 bf 10 72 de ff c7 bd 3f 1d 27 3b ec 74 d6 6d bf
       0.116333 -0.0036423
000720 f2 94 d5 74 3d d1 b9 3f 80 11 f2 49 40 af 7c bf
       0.100849 -0.00700307
000730 c0 41 5a e7 08 ae 7c bf c0 6a 97 fc 70 0c 68 bf
       -0.00700191 -0.00293562
000740 0d 50 1a 6a 14 92 bc 3f 42 0b a6 ed a1 75 7b bf
       0.111604 -0.00670398
000750 85 af 75 ca 1f e3 6c bf 6a db 6d 6d 9a a4 4d bf
       -0.00352627 -0.000904632
000760 53 7b 6c 26 3a 26 b8 3f 25 fa e7 2f 15 97 7a bf
       0.0943333 -0.00649174
000770 fd dd d8 3f 91 1f 78 bf 94 d9 20 93 8c 9c b9 3f
       -0.00588948 0.100045
000780 5c c9 8e 8d 40 bc ba 3f 39 9b 2b d6 b2 ad 7d bf
       0.104435 -0.00724573
000790 1b 89 c8 97 ed 96 76 bf a9 6b ed 7d aa 0a bd 3f
       -0.00551503 0.113444
0007a0 19 5e c5 b9 b8 53 5b bf 80 25 ba db b3 b6 72 bf
       -0.00166791 -0.00456877
0007b0 3b 6f 21 97 51 8f 71 bf ab c1 45 38 77 05 8c bf
       -0.00428707 -0.0136823
0007c0 a2 fd 59 3d 71 4a 8a bf 9f 4a 7a d6 3d cb 56 bf
       -0.0128373 -0.00139123
0007d0 1f c4 29 ce ac 00 b8 3f 55 04 ee 2f 71 9a 94 bf
       0.0937603 -0.0201204
0007e0 33 1c 8d 4b 6e 77 73 bf bc b8 43 79 d5 b9 78 bf
       -0.00475257 -0.0060366
0007f0 c9 49 17 51 c9 ef b7 3f bf a2 b6 68 5c 93 79 bf
       0.0935026 -0.00624405
