neuralcoref/weights/single_mention_bias_layer_1.npy (npy, 4080 bytes, 1 tensors)

array f8 [500, 1]
0	0x3f9c60cbf2b239a4	0.027713
1	0x3f8d67fd3f5b5fa2	0.0143585
2	0x3f8185a7f5270903	0.00855571
3	0x3f92c7c5fccef318	0.0183402
4	0x3fa2c083126e978d	0.036625
5	0xbf82ddee075a116e	-0.00921236
6	0xbf99d458b248bd08	-0.0252241
7	0x3f706d18065c0fa0	0.00401029
8	0xbf49bde5c301b6a8	-0.000785577
9	0x3fa303c07ee0b0af	0.037138
10	0x3f907d68e16ae983	0.0161034
11	0x3f91c3c76a8d3c94	0.0173484
12	0x3f947de5082cf52c	0.0200115
13	0x3f90684e9df2c4ae	0.0160229
14	0x3f9fad37054fcb19	0.0309342
15	0x3f966a18a28e34e2	0.0218891
16	0x3f7f4e1becc59098	0.00764285
17	0x3fa2ef2918273e32	0.0369809
18	0x3fa359004c5619e8	0.0377884
19	0xbfa03fb3743632c2	-0.031736
20	0x3f9472c79db8e30b	0.0199691
21	0x3f63bbb420ae764b	0.00240884
22	0x3f89c4bfb81153e5	0.0125823
23	0x3f9160b6f9fcb0c0	0.0169705
24	0x3f9fb6e3567c0d98	0.0309711
25	0x3f97b19e731d2e0e	0.0231385
26	0x3f810bc255fb5f31	0.00832321
27	0x3fa0f47304039abf	0.033115
28	0x3f7eab3929416cdd	0.00748751
29	0x3f92ae3d958cc49f	0.0182428
30	0x3fa02165ab5583c0	0.0315048
31	0x3f97aa97ee9eaeac	0.0231117
32	0x3f8b16cf4f5e0c25	0.0132271
33	0x3f94665aa7ec42b4	0.0199217
34	0x3f98d1cb394ed627	0.0242378
35	0x3fa0789cc9cfc24b	0.0321702
36	0x3fa0ce2d1f1cfbb9	0.032823
37	0x3fa29f8c21e1d218	0.0363735
38	0x3f8658c4bd33d295	0.0109115
39	0xbf971eafee6fb4c4	-0.022578
40	0x3f9649ab44bcc873	0.0217654
41	0x3f91742a7447d079	0.0170447
42	0x3f83edfe4ac926fb	0.00973128
43	0xbf90953d1386c581	-0.0161943
44	0x3fa2603d57796399	0.0358905
45	0x3f99a019e65b134c	0.0250248
46	0xbfa36baa7305b11a	-0.0379308
47	0x3f856eac8605681f	0.010465
48	0x3f8d721ba64eb3c2	0.0143778
49	0xbf86e653868fd19a	-0.0111815
50	0x3f955e727c1e5e90	0.0208681
51	0x3f9dd590c0ad03da	0.029135
52	0x3f824752a4e88235	0.0089251
53	0x3f88a6472705fe47	0.0120359
54	0x3f857c9eb70fcc26	0.0104916
55	0xbf9cdc8754f3775c	-0.028185
56	0x3f8aeb4b3d153445	0.0131441
57	0xbfa9d528bbe0ec3f	-0.0504544
58	0xbf8ed89dbb6749bb	-0.0150616
59	0xbfa6c291e067b444	-0.0444532
60	0x3fa1e35aadcb7fc6	0.0349377
61	0x3f9ef7ea87c8b6be	0.0302426
62	0x3f995bbbe878fabe	0.024764
63	0x3f9df0eeeb04c638	0.0292394
64	0x3f9c1369695025b2	0.0274178
65	0x3f84b4070329802c	0.010109
66	0x3f8a8396f8d56954	0.0129463
67	0xbfa2d7c045d5cd27	-0.0368023
68	0x3fa256473471f794	0.0358145
69	0x3fa205fbc2839daf	0.0352019
70	0xbf97d66c88bf56c3	-0.0232789
71	0xbfa0337578522135	-0.0316426
72	0xbf9c666ec9e236c1	-0.0277345
73	0x3fa2291248012091	0.0354696
74	0x3fa1c39f26a15479	0.0346956
75	0xbf84c645ca0eac6b	-0.0101438
76	0x3f9661f8429c5cc2	0.0218581
77	0xbf93b5759832914d	-0.0192469
78	0x3f724999262c399a	0.00446472
79	0x3f8ed6f03c3d9df0	0.0150584
80	0x3f95df0761f410de	0.0213586
81	0x3f943d68405b39e2	0.0197655
82	0x3fa30f4ca41d811a	0.0372261
83	0xbfac787485e3da30	-0.0556065
84	0xbf9b2be992d630fa	-0.0265347
85	0x3f94d8ce62cf0231	0.0203583
86	0x3f82b8b491ed7dc7	0.00914136
87	0x3f7f3fb8fd8d0912	0.00762913
88	0x3f86e75ff609dcf9	0.0111835
89	0x3f986ff63220e47c	0.0238646
90	0x3fa05242c2f32f37	0.0318776
91	0xbf666099f3b1930b	-0.00273161
92	0x3f8527ca4964cde0	0.0103298
93	0x3f8f6639f0bc961e	0.0153317
94	0xbfa08dacfc4ced19	-0.0323309
95	0x3fa27d24180d3cff	0.036111
96	0x3fa26238037c8c43	0.0359056
97	0x3f832163d2e33c50	0.00934103
98	0x3f86823d5c81e116	0.0109906
99	0x3f98ed3019a33f35	0.0243423
100	0x3fa1217c518a364f	0.0334586
101	0x3f97285c3f9bf742	0.0226149
102	0x3fa19e07bd63a33e	0.0344088
103	0x3f6da2a836148f03	0.0036176
104	0x3f9eb90dd32759e1	0.0300028
105	0x3f7b30378049e755	0.00663778
106	0x3f874b4070329803	0.011374
107	0x3f97c0b135979182	0.023196
108	0x3fa4552f067dc883	0.0397124
109	0x3fa0b3410a8c4afc	0.0326176
110	0xbfa8390e3e87244c	-0.0473103
111	0x3f926f6e4ce4b521	0.0180032
112	0x3fa00a0a44fd6013	0.0313266
113	0x3f93b857cac23092	0.0192579
114	0x3f9404e3948f6e9d	0.0195499
115	0x3f9188fae5e4cbc7	0.0171241
116	0x3f99fdf99582b3a4	0.0253829
117	0x3fa2cb493f0e32c9	0.0367072
118	0x3f882eb016b3a0ac	0.0118078
119	0x3fa0c0668cfcd325	0.0327179
120	0x3fa13f00c6cf5cca	0.0336838
121	0x3f86c9e8ecbe03dc	0.0111273
122	0x3f623bd1e83f99f4	0.00222579
123	0x3f9ead12f321cb2c	0.0299571
124	0x3f93b9b4c2140c26	0.0192631
125	0x3f9eb06df17522c2	0.0299699
126	0x3fa06da7a3479845	0.0320866
127	0x3f7bf508d61270c6	0.00682548
128	0x3fa11be38b553338	0.0334159
129	0x3f9f6af89c5e6ff8	0.0306815
130	0x3f878367282d45b3	0.0114811
131	0x3f8484bc92c2e5c3	0.0100188
132	0x3f91660fff518457	0.0169909
133	0xbfab0113fc3646e4	-0.0527426
134	0x3f9be88666b6ee3e	0.0272542
135	0x3f8a2c81684a6c35	0.0127802
136	0x3fa0ef6de184eab6	0.0330767
137	0x3f9c580a8310c118	0.0276796
138	0x3f7af2673b2295d7	0.00657883
139	0x3f97652d81428abf	0.0228469
140	0x3fa256366d7a56de	0.035814
141	0x3f92b5af79d5aef4	0.0182712
142	0x3f7f05613ddd862e	0.00757349
143	0x3f590eefb1ff1620	0.00152944
144	0xbfa530e2f6dabd50	-0.0413886
145	0xbf678dfbabb275de	-0.00287532
146	0x3f859825255376a0	0.0105441
147	0x3fa108decbd2d1ca	0.0332708
148	0x3f9269cb75b4b803	0.0179817
149	0x3f8823422467be55	0.011786
150	0x3f9e4b15a807f166	0.0295833
151	0x3f8054995f621040	0.00797386
152	0x3f70c7bb95edbd88	0.00409673
153	0x3fa03d0da7886fa6	0.0317158
154	0xbfa491c73d40d32f	-0.0401747
155	0xbfa2fe99ce72bf3a	-0.0370987
156	0x3fa370de8f6cefed	0.0379705
157	0x3f9e3f78bbd38045	0.029539
158	0x3f81e4981a937f23	0.00873679
159	0x3f8819fa7d09401b	0.0117683
160	0x3f9424a92cb493f1	0.0196711
161	0x3f9b24e30e57b198	0.0265079
162	0x3f7dc6aa48e952ea	0.00726954
163	0x3f7d44d74a7f2a2d	0.00714573
164	0x3f89fda257ae3cbf	0.0126908
165	0x3fa2c2dbb242ddcb	0.0366429
166	0xbf961f04a8056d27	-0.0216027
167	0xbfa13c1b39416a2e	-0.0336617
168	0x3f70d2933551708b	0.00410707
169	0x3fa394672ab18472	0.0382416
170	0x3fa0c88a47ecfe9b	0.03278
171	0x3f97c08fa7a85016	0.0231955
172	0x3f6cad550d4d9b69	0.00350062
173	0x3f8aae0e9ba435d5	0.0130273
174	0x3f80fd80f4b21917	0.00829602
175	0x3f8a052f13e9c1d0	0.0127052
176	0xbf99ccd962068555	-0.0251955
177	0x3f9fcb84ce307a1b	0.0310498
178	0x3f9b9ee38575f626	0.0269733
179	0xbfa177b111856382	-0.0341163
180	0xbf9837dce61f842a	-0.0236506
181	0x3fa53b7a2991c9c1	0.0414694
182	0x3fa3bcbbdd91402f	0.0385493
183	0x3f8b3f20a73f748a	0.013304
184	0x3fa22d83c6c97d8d	0.0355035
185	0xbf94a686e7e62dc7	-0.0201665
186	0x3f8923e5b8561d43	0.0122755
187	0xbfa3acfdfa6c4248	-0.0384292
188	0x3f90e6a260e87824	0.0165048
189	0x3f8da1d1767fb91e	0.0144688
190	0x3fa259b9afb9968f	0.0358408
191	0x3f1232a30e8f194b	6.94191e-05
192	0x3f7a5c622b9935f1	0.00643576
193	0xbf4f5b045d87c587	-0.000956895
194	0x3f8de6eb5c040cd5	0.0146006
195	0x3f88893b7d84901d	0.0119805
196	0x3fa19e4423457f66	0.0344106
197	0x3f88c21e1d2178f7	0.012089
198	0x3f56346a14f1a9a6	0.00135527
199	0x3f901f02fa86437b	0.0157433
200	0x3f95fed3b015dce1	0.0214799
201	0x3f96ba0cd6a817e2	0.0221941
202	0xbf994628d93d1d98	-0.0246817
203	0x3f87e1ee9d012d27	0.0116614
204	0x3fa41eeb7d91fc16	0.0392984
205	0x3f894954dda7e663	0.0123469
206	0xbfa210b7de283ee3	-0.0352838
207	0x3f8d7b2031ceaf25	0.014395
208	0x3fa2f9690d09d3be	0.0370591
209	0x3fa31755871b11d4	0.0372874
210	0x3f9f5990950e199e	0.0306151
211	0x3fa20b2fdeeadc82	0.0352416
212	0xbf9ab8122aa4ef38	-0.0260928
213	0x3fa21b1605fbc284	0.0353629
214	0x3f9e9c7af569a409	0.0298938
215	0xbf9265a06dc93137	-0.0179658
216	0x3f9bb9bb7810b2d6	0.0270757
217	0xbfa6b2e1693c03bc	-0.0443335
218	0x3f9bbc5a8ec1cf43	0.0270857
219	0x3f98dfc42055e0dd	0.0242911
220	0x3fa1275b8e9c0f96	0.0335034
221	0x3f82710bb0e33747	0.00900468
222	0x3f920ed4af195d9f	0.0176347
223	0x3fa112d849d89126	0.0333469
224	0x3f8f7cb7e1833d37	0.0153746
225	0xbfa1602d674157b9	-0.0339369
226	0x3f8d2eaf3ff40bd6	0.0142492
227	0x3f6ffde1c2a830b6	0.00390524
228	0x3f97f3dcdc0e8930	0.0233912
229	0x3f8b94e6ac71e372	0.0134676
230	0x3f95a8d7fafe3880	0.0211519
231	0x3f9f72e34c6b129e	0.0307117
232	0x3f9ab290e1643386	0.0260718
233	0x3f99815a07b352a8	0.0249075
234	0x3f94089c86b3e3c8	0.0195641
235	0x3fa04e4d6aecdde4	0.0318474
236	0x3f7d169949929b23	0.00710163
237	0x3f9202d9cf13ceea	0.017589
238	0x3f94483bd8f4227c	0.0198068
239	0x3fa3e3d5270e61c3	0.0388476
240	0x3f872bbdf3ebf587	0.0113139
241	0x3fa11bbea2679e75	0.0334148
242	0x3f8e274d4be32d61	0.0147234
243	0x3fa36fc158fb43d9	0.037962
244	0xbf91c6957b26e7cb	-0.0173591
245	0x3f982363b256ffc1	0.0235725
246	0x3f784c8513d0975d	0.00593235
247	0x3f93642b22c37967	0.0189368
248	0x3f8e07aff7a9f029	0.0146631
249	0x3f6ec877d376343a	0.0037577
250	0x3fa1320a3e47636c	0.0335849
251	0x3f8d2905b2c76809	0.0142384
252	0x3f9ca3542d7ebe4c	0.0279668
253	0x3f92ab331f113d3f	0.0182312
254	0xbf880dd0a31b229b	-0.0117451
255	0xbf98846f65e968e5	-0.0239427
